weights/gwei1.pt (torch_old, 195394 bytes, 20 tensors)

weight f4 [32, 12, 3, 3]
000000 00 60 2b 3d 00 20 02 3d 00 00 7a 3d 00 00 33 3c
       0.0418396 0.0317688 0.061035156 0.010925293
000010 00 c0 45 3b 00 00 5f bd 00 60 24 3d 00 80 0d bd
       0.0030174255 -0.05444336 0.040130615 -0.0345459
000020 00 e0 a8 bd 00 40 74 bc 00 a0 72 bd 00 00 35 bd
       -0.082458496 -0.014907837 -0.05923462 -0.044189453
000030 00 60 3d bd 00 20 a2 3c 00 80 e1 bc 00 00 27 bd
       -0.04623413 0.01979065 -0.027526855 -0.040771484
000040 00 e0 49 bc 00 c0 6b bd 00 40 06 3d 00 20 a0 3b
       -0.012321472 -0.057556152 0.03277588 0.004886627
000050 00 40 1a 3d 00 c0 db 3b 00 e0 29 3d 00 a0 f4 3a
       0.03765869 0.006706238 0.04147339 0.0018663406
000060 00 e0 96 3c 00 60 05 bc 00 e0 68 bd 00 a0 96 3c
       0.018417358 -0.008140564 -0.056854248 0.01838684
000070 00 60 04 3d 00 40 0b 3d 00 00 02 3d 00 a0 e2 bd
       0.032318115 0.033996582 0.03173828 -0.11065674
000080 00 80 4f be 00 20 2b 3d 00 00 17 3d 00 20 23 3d
       -0.20263672 0.041778564 0.036865234 0.03982544
000090 00 60 b5 bc 00 e0 cc 3b 00 60 36 bc 00 60 27 bd
       -0.022140503 0.006252289 -0.011131287 -0.040863037
0000a0 00 60 6a bd 00 e0 09 be 00 e0 85 bd 00 00 0d bc
       -0.05722046 -0.13464355 -0.06536865 -0.008605957
0000b0 00 a0 85 bc 00 40 49 3a 00 60 01 3d 00 c0 0a 3d
       -0.016311646 0.0007677078 0.031585693 0.03387451
0000c0 00 a0 1f 3d 00 60 1e bd 00 00 d1 bd 00 c0 a5 3c
       0.038970947 -0.03866577 -0.10205078 0.020233154
0000d0 00 80 1b 3d 00 c0 08 3d 00 e0 1a 3c 00 a0 91 3d
       0.037963867 0.03338623 0.00945282 0.07110596
0000e0 00 e0 b3 3c 00 e0 23 3d 00 a0 e2 bd 00 60 2b 3d
       0.021957397 0.040008545 -0.11065674 0.0418396
0000f0 00 e0 5d 3d 00 80 3d be 00 e0 95 3d 00 80 e0 bc
       0.0541687 -0.1850586 0.07318115 -0.027404785
000100 00 c0 49 bd 00 a0 aa bd 00 20 ac 3c 00 20 65 bd
       -0.04925537 -0.08331299 0.021011353 -0.05593872
000110 00 40 0a bd 00 80 7d 3c 00 20 ea bd 00 a0 e4 bc
       -0.03375244 0.015472412 -0.11431885 -0.027908325
000120 00 e0 3d bc 00 40 51 3d 00 20 3c 3c 00 e0 d6 3c
       -0.01158905 0.051086426 0.011482239 0.026229858
000130 00 a0 56 bc 00 c0 2a 3d 00 c0 19 3d 00 60 ee bd
       -0.01309967 0.04168701 0.03753662 -0.11639404
000140 00 a0 25 3d 00 60 f9 39 00 e0 42 3d 00 00 fc 3c
       0.04043579 0.00047564507 0.047576904 0.030761719
000150 00 00 2a 3d 00 60 b2 be 00 a0 73 3d 00 60 ba 3c
       0.041503906 -0.34838867 0.05947876 0.022750854
000160 00 e0 5f 3d 00 40 49 3d 00 80 87 bc 00 c0 f3 bb
       0.054656982 0.0491333 -0.016540527 -0.0074386597
000170 00 00 4d bd 00 00 64 3c 00 60 6b be 00 60 71 bc
       -0.050048828 0.013916016 -0.2298584 -0.014732361
000180 00 80 2f bd 00 00 69 3c 00 60 a3 bd 00 80 bf bc
       -0.04284668 0.014221191 -0.07977295 -0.023376465
000190 00 a0 39 3d 00 e0 bd 3b 00 c0 17 3d 00 e0 46 be
       0.045318604 0.005794525 0.03704834 -0.19421387
0001a0 00 00 69 3d 00 00 28 3c 00 40 41 3d 00 80 d0 3c
       0.056884766 0.010253906 0.047180176 0.02545166
0001b0 00 20 52 3e 00 60 b3 3e 00 80 91 3e 00 a0 db 3d
       0.2052002 0.3503418 0.2841797 0.10723877
0001c0 00 60 d8 3d 00 40 68 3d 00 20 5c be 00 00 b0 be
       0.105651855 0.05670166 -0.21496582 -0.34375
0001d0 00 80 af be 00 60 c7 3d 00 80 76 3e 00 80 46 3e
       -0.34277344 0.097351074 0.24072266 0.19384766
0001e0 00 20 ba 3d 00 c0 e4 3d 00 60 95 3d 00 c0 3b be
       0.09088135 0.111694336 0.07293701 -0.18334961
0001f0 00 40 92 be 00 20 90 be 00 20 25 3d 00 40 23 3e
       -0.28564453 -0.28149414 0.04031372 0.15942383
000200 00 40 e8 3d 00 80 89 3d 00 40 a8 3d 00 40 1a 3d
       0.11340332 0.06713867 0.08215332 0.03765869
000210 00 80 0a be 00 a0 44 be 00 80 53 be 00 e0 5b 3e
       -0.1352539 -0.1920166 -0.20654297 0.21472168
000220 00 00 a9 3e 00 e0 80 3e 00 80 a1 bc 00 a0 7c bd
       0.33007812 0.25170898 -0.019714355 -0.061676025
000230 00 60 ce bd 00 20 2b be 00 e0 a6 be 00 00 92 be
       -0.10076904 -0.16711426 -0.32592773 -0.28515625
000240 00 40 21 3e 00 a0 93 3e 00 40 64 3e 00 a0 89 bc
       0.1574707 0.28833008 0.22290039 -0.016799927
000250 00 c0 05 bd 00 00 8d bd 00 80 ee bd 00 60 7d be
       -0.03265381 -0.068847656 -0.11645508 -0.24743652
000260 00 20 51 be 00 40 d3 3d 00 60 50 3e 00 20 16 3e
       -0.20422363 0.103149414 0.20349121 0.14660645
000270 00 40 1f bc 00 60 b6 bb 00 20 5e bd 00 e0 4f bd
       -0.009719849 -0.0055656433 -0.054229736 -0.050750732
000280 00 80 0a be 00 60 e5 bd 00 40 80 3e 00 60 ad 3e
       -0.1352539 -0.11199951 0.25048828 0.33862305
000290 00 e0 6d 3e 00 c0 b2 3d 00 a0 63 3d 00 e0 a6 3d
       0.2322998 0.08728027 0.05557251 0.08148193
0002a0 00 40 a5 be 00 e0 aa be 00 80 80 be 00 40 0f 3e
       -0.3227539 -0.33374023 -0.25097656 0.13989258
0002b0 00 00 6c 3e 00 e0 0c 3e 00 20 b4 3d 00 80 82 3d
       0.23046875 0.13757324 0.08795166 0.0637207
0002c0 00 00 ae 3d 00 60 89 be 00 00 8d be 00 00 50 be
       0.08496094 -0.26831055 -0.27539062 -0.203125
0002d0 00 a0 99 3d 00 60 15 3e 00 00 8f 3d 00 40 75 3d
       0.07501221 0.14587402 0.06982422 0.05987549
0002e0 00 a0 f5 3c 00 a0 5c 3d 00 c0 45 be 00 e0 3b be
       0.02998352 0.053863525 -0.19311523 -0.18347168
0002f0 00 c0 18 be 00 e0 80 3e 00 c0 96 3e 00 40 6a 3e
       -0.14916992 0.25170898 0.2944336 0.22875977
000300 00 20 8e bd 00 e0 ab bd 00 c0 4c bd 00 00 91 be
       -0.06939697 -0.08392334 -0.049987793 -0.28320312
000310 00 a0 97 be 00 60 38 be 00 e0 4d 3e 00 20 7e 3e
       -0.29614258 -0.18005371 0.2010498 0.24816895
000320 00 00 3c 3e 00 40 4f bd 00 00 6e bd 00 40 0d bd
       0.18359375 -0.050598145 -0.05810547 -0.034484863
000330 00 a0 5c be 00 20 63 be 00 20 ed bd 00 c0 06 3e
       -0.2154541 -0.22180176 -0.11578369 0.1315918
000340 00 00 2a 3e 00 80 fb 3d 00 20 f6 bc 00 c0 fe bc
       0.16601562 0.122802734 -0.030044556 -0.031097412
000350 00 e0 e6 bc 00 00 f7 bd 00 e0 df bd 00 00 22 bd
       -0.028182983 -0.12060547 -0.109313965 -0.03955078
000360 00 40 15 bd 00 80 b6 bb 00 c0 aa bc 00 40 1e 3d
       -0.03643799 -0.005569458 -0.020843506 0.038635254
000370 00 60 66 be 00 00 2c bc 00 00 53 bc 00 00 3f 3b
       -0.22497559 -0.010498047 -0.012878418 0.0029144287
000380 00 00 6f 3c 00 e0 a5 3c 00 80 b5 3c 00 60 57 3d
       0.014587402 0.020248413 0.022155762 0.052581787
000390 00 40 bd 3c 00 80 a2 be 00 a0 b3 bc 00 a0 50 3c
       0.023101807 -0.3173828 -0.02192688 0.0127334595
0003a0 00 40 37 3c 00 40 1b 3d 00 40 88 3c 00 a0 45 3d
       0.011184692 0.037902832 0.01663208 0.04824829
0003b0 00 40 e3 3b 00 20 8c 3d 00 c0 44 be 00 c0 09 3d
       0.0069351196 0.06842041 -0.19213867 0.03363037
0003c0 00 00 19 3d 00 20 e0 3c 00 40 0a 3d 00 e0 fc 3c
       0.037353516 0.027359009 0.03375244 0.03086853
0003d0 00 20 ba bd 00 60 a9 3c 00 a0 a3 3c 00 c0 95 bd
       -0.09088135 0.02067566 0.019973755 -0.07312012
0003e0 00 20 e2 bb 00 e0 36 bd 00 20 0e bb 00 a0 9a bc
       -0.0069007874 -0.044647217 -0.0021686554 -0.018875122
0003f0 00 e0 14 3d 00 c0 13 be 00 c0 0a 3d 00 40 e0 3c
       0.036346436 -0.14428711 0.03387451 0.027374268

weight f4 [32]
000000 00 00 1e 40 00 a0 50 3f 00 c0 02 40 00 c0 e8 3f
       2.46875 0.8149414 2.0429688 1.8183594
000010 00 a0 3c 40 00 00 b0 3f 00 40 7a 3f 00 20 01 40
       2.9472656 1.375 0.97753906 2.0175781
000020 00 c0 34 3f 00 40 79 3f 00 a0 23 3f 00 a0 55 3f
       0.7060547 0.9736328 0.63916016 0.83447266
000030 00 20 84 3f 00 00 9a 3f 00 e0 12 40 00 80 8d 3f
       1.0322266 1.203125 2.2949219 1.1054688
000040 00 40 c3 3f 00 e0 8c 3f 00 c0 64 3f 00 40 89 3f
       1.5253906 1.1005859 0.8935547 1.0722656
000050 00 a0 86 3f 00 c0 1a 3f 00 80 23 40 00 80 b9 3f
       1.0517578 0.6044922 2.5546875 1.4492188
000060 00 20 5b 3f 00 a0 df 3f 00 60 84 3f 00 00 91 3f
       0.85595703 1.7470703 1.0341797 1.1328125
000070 00 00 10 3f 00 40 a8 3f 00 00 7f 3f 00 c0 b7 3f
       0.5625 1.3144531 0.99609375 1.4355469

bias f4 [32]
000000 00 60 48 c0 00 e0 ac 3e 00 e0 10 c0 00 20 4a c0
       -3.1308594 0.33764648 -2.2636719 -3.1582031
000010 00 c0 83 c0 00 80 c2 bf 00 00 fe 3f 00 c0 6d c0
       -4.1171875 -1.5195312 1.984375 -3.7148438
000020 00 a0 c8 3f 00 a0 c2 3e 00 80 70 be 00 40 0f 3f
       1.5673828 0.38012695 -0.23486328 0.5595703
000030 00 40 31 3f 00 00 8f 3f 00 00 24 c0 00 e0 ca bf
       0.6923828 1.1171875 -2.5625 -1.5849609
000040 00 80 29 c0 00 80 9b bf 00 00 11 3f 00 c0 84 3e
       -2.6484375 -1.2148438 0.56640625 0.25927734
000050 00 60 e3 3f 00 60 94 3f 00 c0 50 c0 00 a0 28 3e
       1.7763672 1.1591797 -3.2617188 0.16467285
000060 00 c0 d7 3e 00 60 c8 bf 00 20 f3 3f 00 00 5f 3f
       0.42138672 -1.5654297 1.8994141 0.87109375
000070 00 40 d8 3e 00 e0 76 3f 00 c0 37 3f 00 60 1e c0
       0.42236328 0.96435547 0.71777344 -2.4746094

running_mean f4 [32]
000000 00 e0 11 bf 00 60 73 bb 00 c0 09 bf 00 a0 64 3f
       -0.5698242 -0.0037136078 -0.53808594 0.8930664
000010 00 80 16 bf 00 00 4a bc 00 20 af 3a 00 40 ec 3e
       -0.5878906 -0.012329102 0.0013360977 0.46142578
000020 00 80 5e 3b 00 e0 a1 3c 00 60 cf be 00 00 34 3d
       0.0033950806 0.019760132 -0.4050293 0.043945312
000030 00 c0 68 bc 00 00 63 bb 00 a0 12 bf 00 40 bb bc
       -0.014205933 -0.0034637451 -0.5727539 -0.022857666
000040 00 a0 db 3e 00 20 26 bd 00 c0 4f 3e 00 c0 f6 bd
       0.42895508 -0.04055786 0.20288086 -0.1204834
000050 00 60 61 ba 00 20 a3 3a 00 a0 1f bf 00 c0 05 be
       -0.0008597374 0.001244545 -0.62353516 -0.13061523
000060 00 a0 b4 bc 00 80 fc be 00 a0 cc ba 00 60 74 bc
       -0.02204895 -0.49316406 -0.0015611649 -0.014915466
000070 00 60 2b 3c 00 00 8c b9 00 60 5b 3a 00 e0 c7 3e
       0.0104599 -0.0002670288 0.0008368492 0.39038086

running_var f4 [32]
000000 00 20 ee 3d 00 60 0a 3f 00 60 d1 3d 00 80 83 3e
       0.11627197 0.54052734 0.10223389 0.25683594
000010 00 80 f3 3d 00 80 7a 3c 00 20 39 3c 00 00 d1 3d
       0.118896484 0.015289307 0.011299133 0.10205078
000020 00 80 bd 3b 00 a0 11 3f 00 e0 82 3d 00 a0 bb 3d
       0.005783081 0.56884766 0.06390381 0.09161377
000030 00 a0 3e 3e 00 60 e6 3c 00 e0 1a 3e 00 a0 96 3c
       0.18615723 0.028121948 0.15124512 0.01838684
000040 00 00 86 3d 00 e0 cc 3c 00 60 83 3e 00 c0 6b 3e
       0.06542969 0.025009155 0.2565918 0.23022461
000050 00 c0 41 3c 00 20 b1 3b 00 00 26 3e 00 00 d4 3e
       0.0118255615 0.005405426 0.16210938 0.4140625
000060 00 40 0b 3f 00 00 e4 3d 00 60 2e 3c 00 40 b9 3c
       0.5439453 0.111328125 0.010643005 0.022613525
000070 00 a0 62 3c 00 60 d2 3c 00 40 9f 3d 00 e0 5d 3d
       0.013832092 0.025680542 0.07775879 0.0541687

weight f4 [64, 32, 3, 3]
000000 00 60 6d bb 00 00 44 3b 00 40 bb bb 00 40 bc bc
       -0.003622055 0.0029907227 -0.0057144165 -0.022979736
000010 00 e0 61 3b 00 00 02 3d 00 60 4c 3d 00 00 a8 bb
       0.003446579 0.03173828 0.04989624 -0.005126953
000020 00 a0 2a bc 00 60 04 bc 00 a0 82 3b 00 80 18 bb
       -0.010414124 -0.008079529 0.0039863586 -0.0023269653
000030 00 00 81 bc 00 00 4e bd 00 60 8e bc 00 60 6a 3c
       -0.01574707 -0.05029297 -0.01737976 0.014305115
000040 00 00 80 3b 00 20 d5 bc 00 a0 39 bc 00 60 08 3d
       0.00390625 -0.026016235 -0.011329651 0.033294678
000050 00 20 a9 3b 00 e0 a6 bb 00 60 0d 3d 00 e0 3d 3d
       0.0051612854 -0.005092621 0.03451538 0.0463562
000060 00 c0 e4 bc 00 20 8d bd 00 80 4d bc 00 e0 0e bd
       -0.027923584 -0.06890869 -0.012542725 -0.03488159
000070 00 c0 25 bd 00 40 09 bd 00 60 6a 3c 00 60 98 bb
       -0.04046631 -0.0335083 0.014305115 -0.004650116
000080 00 40 0a bd 00 c0 42 3d 00 20 3a 3d 00 20 3c 3c
       -0.03375244 0.047546387 0.045440674 0.011482239
000090 00 40 68 3c 00 20 20 3d 00 e0 47 3d 00 40 35 bd
       0.014175415 0.039093018 0.048797607 -0.04425049
0000a0 00 40 70 bc 00 40 12 3d 00 c0 69 bd 00 a0 ab bd
       -0.014663696 0.035705566 -0.05706787 -0.08380127
0000b0 00 80 22 bd 00 80 0c bc 00 a0 8f 3c 00 00 3f 3c
       -0.03967285 -0.008575439 0.017532349 0.011657715
0000c0 00 a0 92 3b 00 80 0d bd 00 c0 25 bb 00 80 1c 3c
       0.00447464 -0.0345459 -0.0025291443 0.009552002
0000d0 00 c0 84 bb 00 40 71 bb 00 e0 61 bc 00 60 cb bb
       -0.0040512085 -0.0036811829 -0.013786316 -0.0062065125
0000e0 00 40 c6 bb 00 c0 63 3c 00 80 b9 ba 00 40 0d 3c
       -0.00605011 0.013900757 -0.0014152527 0.008621216
0000f0 00 60 f0 3a 00 a0 27 3c 00 80 4a bc 00 80 ad bc
       0.0018339157 0.010231018 -0.012359619 -0.0211792
000100 00 60 46 3c 00 60 c5 3b 00 80 9a bc 00 e0 bd 3b
       0.012107849 0.006023407 -0.018859863 0.005794525
000110 00 40 eb 3b 00 e0 bd bc 00 20 8e bc 00 00 e4 bb
       0.0071792603 -0.0231781 -0.017349243 -0.006958008
000120 00 c0 16 be 00 60 13 be 00 80 1f 3e 00 60 e6 3d
       -0.1472168 -0.1439209 0.15576172 0.11248779
000130 00 00 43 be 00 a0 0c be 00 60 04 3e 00 c0 6d 3e
       -0.19042969 -0.1373291 0.12927246 0.23217773
000140 00 40 f0 bd 00 a0 c7 3b 00 00 bd bc 00 60 bf bc
       -0.11730957 0.0060920715 -0.023071289 -0.023361206
000150 00 a0 a5 3c 00 80 04 bc 00 e0 1d 3d 00 20 99 bb
       0.020217896 -0.008087158 0.0385437 -0.004673004
000160 00 60 27 3b 00 00 27 bc 00 20 27 bd 00 c0 3a bd
       0.0025539398 -0.010192871 -0.040802002 -0.04559326
000170 00 20 9d bc 00 80 b6 3c 00 60 53 bc 00 00 2f bc
       -0.019180298 0.022277832 -0.012901306 -0.010681152
000180 00 e0 6c 3d 00 a0 90 3c 00 60 03 bd 00 40 30 3d
       0.05783081 0.017654419 -0.032073975 0.043029785
000190 00 e0 3c 3e 00 c0 67 3e 00 e0 2c be 00 00 5b 3c
       0.18444824 0.22631836 -0.16882324 0.013366699
0001a0 00 80 3e 3e 00 a0 7a be 00 60 5c be 00 c0 8c bd
       0.18603516 -0.24475098 -0.21520996 -0.068725586
0001b0 00 a0 82 bc 00 60 3a bc 00 20 0f 3c 00 e0 96 bc
       -0.015945435 -0.011375427 0.008735657 -0.018417358
0001c0 00 c0 0e bd 00 40 41 bc 00 60 b4 3c 00 e0 84 3b
       -0.034851074 -0.011795044 0.022018433 0.004055023
0001d0 00 80 6e bc 00 e0 3a bb 00 80 1f bc 00 c0 9b bc
       -0.014556885 -0.0028514862 -0.009735107 -0.019012451
0001e0 00 40 d1 3c 00 a0 21 bc 00 e0 09 bb 00 e0 9d 3c
       0.025543213 -0.009864807 -0.0021038055 0.01927185
0001f0 00 40 bf 3c 00 e0 52 bc 00 c0 d1 bc 00 00 89 bc
       0.023345947 -0.012870789 -0.025604248 -0.016723633
000200 00 00 1f 3d 00 20 93 bc 00 20 0f bd 00 40 31 bc
       0.03881836 -0.017959595 -0.034942627 -0.010818481
000210 00 20 df 3c 00 e0 cb 3b 00 40 e3 bc 00 a0 99 bc
       0.027236938 0.0062217712 -0.027740479 -0.018753052
000220 00 e0 ec bb 00 40 e0 bb 00 80 34 bd 00 a0 db bc
       -0.0072288513 -0.006843567 -0.044067383 -0.026809692
000230 00 00 a0 3b 00 a0 db bb 00 e0 2d bc 00 c0 d3 bc
       0.0048828125 -0.006702423 -0.010612488 -0.025848389
000240 00 a0 34 bc 00 80 ee bb 00 c0 e4 bb 00 a0 4c 3b
       -0.011024475 -0.0072784424 -0.006980896 0.0031223297
000250 00 a0 9c 3b 00 a0 03 bd 00 a0 08 3d 00 00 04 3d
       0.0047798157 -0.03213501 0.033355713 0.032226562
000260 00 e0 44 3c 00 e0 01 bc 00 20 6e bb 00 80 18 b8
       0.012016296 -0.007926941 -0.0036334991 -3.6358833e-05
000270 00 a0 02 ba 00 20 16 bb 00 60 63 3c 00 80 dc 3b
       -0.00049829483 -0.0022907257 0.013877869 0.006729126
000280 00 00 81 bc 00 40 49 3b 00 40 e4 bc 00 80 fd bd
       -0.01574707 0.0030708313 -0.027862549 -0.1237793
000290 00 60 35 be 00 00 2d 3d 00 c0 61 3c 00 00 dc bd
       -0.17712402 0.042236328 0.0137786865 -0.107421875
0002a0 00 80 81 3d 00 40 1a 3e 00 40 96 3d 00 c0 32 bd
       0.06323242 0.15063477 0.07336426 -0.043640137
0002b0 00 20 ed bd 00 a0 3c be 00 80 d9 3d 00 40 19 3d
       -0.11578369 -0.1842041 0.10620117 0.03741455
0002c0 00 e0 c2 bd 00 80 d4 3d 00 c0 fa 3d 00 20 58 3d
       -0.09515381 0.103759766 0.12243652 0.052764893
0002d0 00 40 b5 bb 00 a0 32 bb 00 00 9e 36 00 c0 0e 3c
       -0.005531311 -0.0027256012 4.708767e-06 0.008712769
0002e0 00 00 17 bc 00 a0 76 3b 00 a0 06 3c 00 00 0e bc
       -0.009216309 0.0037631989 0.008216858 -0.008666992
0002f0 00 20 a3 bb 00 c0 03 be 00 00 aa bd 00 00 8c 3e
       -0.00497818 -0.12866211 -0.08300781 0.2734375
000300 00 00 89 3d 00 a0 74 be 00 40 39 be 00 20 02 3e
       0.06689453 -0.2388916 -0.1809082 0.1270752
000310 00 20 4d 3e 00 80 fe bd 00 60 76 3c 00 00 6e 3c
       0.20031738 -0.12426758 0.015037537 0.014526367
000320 00 c0 08 3c 00 80 82 bb 00 00 55 bb 00 80 df 3c
       0.008346558 -0.003982544 -0.003250122 0.027282715
000330 00 20 d8 bc 00 60 11 bc 00 80 9e bc 00 20 44 3d
       -0.026382446 -0.008872986 -0.019348145 0.04788208
000340 00 40 d0 3d 00 20 a3 3d 00 a0 9e bd 00 20 8f 3b
       0.10168457 0.07965088 -0.07745361 0.0043678284
000350 00 80 a0 3d 00 e0 f0 bd 00 20 0b be 00 80 bd bc
       0.07836914 -0.117614746 -0.13586426 -0.023132324
000360 00 e0 c6 bc 00 c0 26 3d 00 80 9c bc 00 e0 dd 3c
       -0.024276733 0.04071045 -0.019104004 0.02708435
000370 00 80 ab 3b 00 20 42 bc 00 c0 24 3a 00 e0 12 3b
       0.0052337646 -0.01184845 0.0006284714 0.0022411346
000380 00 40 05 bd 00 a0 33 3c 00 60 95 bc 00 20 60 bc
       -0.03253174 0.01096344 -0.018234253 -0.013679504
000390 00 a0 5d 3c 00 e0 6b 3c 00 e0 da b8 00 40 66 3c
       0.0135269165 0.0143966675 -0.00010436773 0.014053345
0003a0 00 40 20 3d 00 c0 23 3c 00 40 6a 3b 00 80 5f bb
       0.039123535 0.009994507 0.0035743713 -0.0034103394
0003b0 00 80 79 bc 00 40 38 3b 00 e0 f6 bb 00 60 50 3c
       -0.0152282715 0.002811432 -0.007534027 0.012718201
0003c0 00 00 9b 3a 00 c0 7c bc 00 20 69 3c 00 20 af 3c
       0.0011825562 -0.015426636 0.014228821 0.021377563
0003d0 00 a0 01 3c 00 40 95 bc 00 e0 91 3c 00 e0 2c 3c
       0.007911682 -0.018218994 0.017807007 0.010551453
0003e0 00 a0 fc bb 00 80 54 bc 00 80 5d bc 00 a0 b1 bc
       -0.007709503 -0.012969971 -0.013519287 -0.02168274
0003f0 00 a0 1f 3d 00 80 11 bb 00 20 f7 bd 00 60 55 3c
       0.038970947 -0.0022201538 -0.120666504 0.013023376

weight f4 [64]
000000 00 e0 09 3f 00 20 2c 3f 00 60 d1 3e 00 00 00 3f
       0.5385742 0.6723633 0.40893555 0.5
000010 00 40 0f 3f 00 60 e5 3e 00 a0 32 3f 00 80 16 3f
       0.5595703 0.44799805 0.6977539 0.5878906
000020 00 60 bf 3e 00 80 40 3f 00 20 2b 3f 00 c0 ef 3e
       0.3737793 0.7519531 0.66845703 0.46826172
000030 00 80 32 3f 00 a0 4b 3f 00 80 06 3f 00 00 06 3f
       0.6972656 0.79541016 0.5253906 0.5234375
000040 00 e0 23 3f 00 c0 68 3f 00 a0 0c 3f 00 80 16 3f
       0.6401367 0.9091797 0.5493164 0.5878906
000050 00 a0 ee 3e 00 20 ea 3e 00 20 f1 3e 00 60 17 3f
       0.46606445 0.4572754 0.47094727 0.5913086
000060 00 e0 33 3f 00 00 ce 3e 00 20 26 3f 00 a0 02 3f
       0.7026367 0.40234375 0.6489258 0.5102539
000070 00 40 db 3e 00 c0 13 3f 00 c0 21 3f 00 80 3b 3f
       0.42822266 0.57714844 0.63183594 0.7324219
000080 00 40 13 3f 00 e0 5e 3f 00 20 33 3f 00 60 eb 3e
       0.5751953 0.87060547 0.69970703 0.4597168
000090 00 60 6f 3f 00 00 02 3f 00 20 db 3e 00 60 33 3f
       0.9350586 0.5078125 0.42797852 0.7006836
0000a0 00 e0 22 3f 00 80 1f 3f 00 a0 1f 3f 00 40 48 3f
       0.63623047 0.6230469 0.62353516 0.78222656
0000b0 00 a0 c9 3e 00 60 3c 3f 00 c0 a4 3e 00 40 2b 3f
       0.39379883 0.73583984 0.32177734 0.6689453
0000c0 00 c0 28 3f 00 60 2d 3f 00 60 ae 3e 00 c0 30 3f
       0.6591797 0.6772461 0.34057617 0.6904297
0000d0 00 20 f0 3e 00 60 25 3f 00 40 19 3f 00 a0 29 3f
       0.46899414 0.6459961 0.5986328 0.66259766
0000e0 00 80 2d 3f 00 80 2a 3f 00 80 14 3f 00 40 0d 3f
       0.6777344 0.6660156 0.5800781 0.5517578
0000f0 00 60 3b 3f 00 60 16 3f 00 60 37 3f 00 a0 41 3f
       0.7319336 0.58740234 0.7163086 0.75634766

bias f4 [64]
000000 00 60 a4 bd 00 80 a7 bc 00 e0 be bc 00 20 ce bc
       -0.08026123 -0.020446777 -0.02330017 -0.025161743
000010 00 a0 ed 3e 00 40 1b bf 00 20 39 bd 00 00 ef 3e
       0.46411133 -0.6064453 -0.045196533 0.46679688
000020 00 c0 68 bd 00 c0 0e bd 00 20 8f bd 00 40 90 bc
       -0.05682373 -0.034851074 -0.069885254 -0.017608643
000030 00 60 60 3c 00 c0 65 3e 00 e0 85 3e 00 e0 e4 bd
       0.013694763 0.22436523 0.2614746 -0.11175537
000040 00 20 2f bd 00 20 26 c0 00 80 ad bc 00 00 60 bd
       -0.042755127 -2.5957031 -0.0211792 -0.0546875
000050 00 c0 8c bd 00 80 2e bd 00 00 9b 3e 00 40 cb bd
       -0.068725586 -0.04260254 0.30273438 -0.099243164
000060 00 a0 14 bf 00 00 e2 3e 00 e0 2b bd 00 40 30 bd
       -0.5805664 0.44140625 -0.04196167 -0.043029785
000070 00 40 b4 be 00 c0 a0 3e 00 e0 d6 be 00 20 37 bd
       -0.35205078 0.31396484 -0.41967773 -0.044708252
000080 00 e0 61 bd 00 60 08 3e 00 e0 30 bd 00 a0 5a bf
       -0.055145264 0.13317871 -0.043182373 -0.8540039
000090 00 c0 8c 3e 00 60 15 bd 00 80 4b bd 00 60 bd bc
       0.27490234 -0.036468506 -0.049682617 -0.023117065
0000a0 00 80 34 bd 00 20 23 be 00 a0 2e bd 00 c0 69 bd
       -0.044067383 -0.15930176 -0.042633057 -0.05706787
0000b0 00 c0 37 bd 00 60 a6 3e 00 00 23 3e 00 20 af bd
       -0.04486084 0.32495117 0.15917969 -0.085510254
0000c0 00 c0 97 3c 00 40 8d 3d 00 80 4d 3e 00 20 5a bd
       0.01852417 0.06896973 0.2006836 -0.053253174
0000d0 00 60 15 bc 00 40 24 bd 00 00 a1 3d 00 00 89 bd
       -0.009117126 -0.040100098 0.07861328 -0.06689453
0000e0 00 20 b2 3d 00 e0 09 bd 00 60 33 bd 00 e0 64 bd
       0.0869751 -0.03366089 -0.043792725 -0.055877686
0000f0 00 60 00 bd 00 a0 1f bd 00 e0 95 3d 00 40 97 3e
       -0.031341553 -0.038970947 0.07318115 0.29541016

running_mean f4 [64]
000000 00 80 fe be 00 e0 84 3c 00 60 ab bd 00 a0 57 bd
       -0.4970703 0.016220093 -0.0836792 -0.052642822
000010 00 c0 a7 3d 00 40 54 40 00 c0 9e bd 00 80 03 3e
       0.08190918 3.3164062 -0.07751465 0.12841797
000020 00 c0 34 be 00 80 08 3d 00 a0 a0 be 00 40 d9 bd
       -0.17651367 0.033325195 -0.3137207 -0.1060791
000030 00 c0 a3 be 00 40 1f be 00 40 49 3f 00 c0 09 be
       -0.31982422 -0.15551758 0.7861328 -0.13452148
000040 00 a0 04 bf 00 c0 a3 bf 00 40 b0 bc 00 40 0b be
       -0.5180664 -1.2792969 -0.021514893 -0.13598633
000050 00 60 96 3d 00 40 48 bd 00 00 10 c0 00 80 04 bf
       0.07342529 -0.04888916 -2.25 -0.5175781
000060 00 00 1c bf 00 00 af 3d 00 80 c1 be 00 e0 49 be
       -0.609375 0.08544922 -0.3779297 -0.19714355
000070 00 60 80 bf 00 20 63 bb 00 80 16 bf 00 20 95 be
       -1.0029297 -0.0034656525 -0.5878906 -0.29125977
000080 00 c0 6a be 00 60 6c be 00 c0 d4 bd 00 00 e4 bd
       -0.22924805 -0.23083496 -0.103881836 -0.111328125
000090 00 00 c0 be 00 c0 2e be 00 20 ea be 00 c0 91 be
       -0.375 -0.1706543 -0.4572754 -0.28466797
0000a0 00 60 b5 be 00 e0 11 bf 00 00 68 be 00 80 ea 3c
       -0.35424805 -0.5698242 -0.2265625 0.028625488
0000b0 00 a0 48 3c 00 20 4d 3e 00 c0 e6 3d 00 40 b4 be
       0.012245178 0.20031738 0.1126709 -0.35205078
0000c0 00 60 e9 3d 00 00 9f be 00 a0 84 3e 00 a0 be bd
       0.11395264 -0.31054688 0.2590332 -0.09307861
0000d0 00 20 91 be 00 40 1a be 00 00 19 bf 00 20 7a be
       -0.28344727 -0.15063477 -0.59765625 -0.2442627
0000e0 00 40 2b bf 00 00 34 be 00 80 5f be 00 a0 00 3d
       -0.6689453 -0.17578125 -0.21826172 0.031402588
0000f0 00 60 f7 bd 00 e0 54 bd 00 20 82 bd 00 00 c5 bf
       -0.120788574 -0.051971436 -0.0635376 -1.5390625

running_var f4 [64]
000000 00 00 c4 3e 00 c0 10 40 00 e0 a8 3e 00 a0 99 3f
       0.3828125 2.2617188 0.32983398 1.2001953
000010 00 60 da 3f 00 e0 f2 3e 00 20 94 3f 00 80 3e 3f
       1.7060547 0.47436523 1.1572266 0.7441406
000020 00 80 ca 3e 00 a0 0e 40 00 40 0a 3f 00 a0 a0 3f
       0.3955078 2.2285156 0.54003906 1.2548828
000030 00 c0 e4 3f 00 80 db 3f 00 e0 2a 40 00 00 7f 3e
       1.7871094 1.7148438 2.6699219 0.24902344
000040 00 00 a7 3f 00 c0 a1 3e 00 80 a6 3f 00 00 56 3f
       1.3046875 0.31591797 1.3007812 0.8359375
000050 00 e0 01 3f 00 a0 2f 3f 00 00 36 40 00 60 e3 3e
       0.5073242 0.68603516 2.84375 0.4440918
000060 00 00 11 3f 00 80 22 3f 00 c0 bc 3f 00 a0 91 3f
       0.56640625 0.6347656 1.4746094 1.1376953
000070 00 20 a0 3e 00 40 5c 3f 00 e0 09 3f 00 00 0d 40
       0.31274414 0.86035156 0.5385742 2.203125
000080 00 c0 95 3f 00 a0 73 40 00 e0 07 40 00 20 0d 3e
       1.1699219 3.8066406 2.1230469 0.13781738
000090 00 a0 50 40 00 a0 11 3f 00 00 ee 3e 00 20 c7 3f
       3.2597656 0.56884766 0.46484375 1.5556641
0000a0 00 60 9f 3f 00 c0 bf 3e 00 60 ca 3f 00 60 03 40
       1.2451172 0.37451172 1.5810547 2.0527344
0000b0 00 80 07 3f 00 a0 2e 40 00 60 af 3e 00 a0 16 40
       0.5292969 2.7285156 0.3425293 2.3535156
0000c0 00 00 02 40 00 80 17 40 00 60 02 40 00 00 dc 3f
       2.03125 2.3671875 2.0371094 1.71875
0000d0 00 e0 13 3f 00 a0 7d 3f 00 e0 9d 3f 00 00 85 3f
       0.5776367 0.99072266 1.2333984 1.0390625
0000e0 00 40 b7 3f 00 60 fa 3f 00 00 dc 3f 00 40 98 3f
       1.4316406 1.9560547 1.71875 1.1894531
0000f0 00 60 cf 3f 00 a0 90 3f 00 a0 de 3f 00 c0 8a 40
       1.6201172 1.1298828 1.7392578 4.3359375

weight f4 [32, 64, 1, 1]
000000 00 e0 27 3c 00 a0 09 3d 00 40 cb bb 00 c0 0b bd
       0.010246277 0.033599854 -0.0062026978 -0.034118652
000010 00 00 ab 3d 00 20 f8 bd 00 40 43 bd 00 a0 3f 3d
       0.083496094 -0.121154785 -0.047668457 0.046783447
000020 00 00 44 3c 00 80 b7 3c 00 60 ba 3b 00 00 7d be
       0.011962891 0.022399902 0.0056877136 -0.24707031
000030 00 60 9d bd 00 60 4f bf 00 00 ac 3c 00 40 f4 bc
       -0.07684326 -0.8100586 0.020996094 -0.029815674
000040 00 40 bd bd 00 60 8b 3d 00 e0 bd bd 00 00 12 3d
       -0.09240723 0.0680542 -0.0927124 0.03564453
000050 00 80 0f bc 00 c0 5e bc 00 80 c1 bd 00 40 9b bd
       -0.008758545 -0.013595581 -0.09448242 -0.075805664
000060 00 c0 48 bd 00 20 c2 bc 00 c0 71 bd 00 00 c3 bd
       -0.04901123 -0.0236969 -0.059020996 -0.095214844
000070 00 60 22 3d 00 20 88 3c 00 80 19 bd 00 c0 0b bd
       0.039642334 0.016616821 -0.037475586 -0.034118652
000080 00 20 14 bd 00 80 84 3d 00 00 2e bd 00 80 1e bb
       -0.03616333 0.064697266 -0.04248047 -0.002418518
000090 00 80 0d be 00 80 67 bd 00 40 51 bd 00 00 70 3d
       -0.1381836 -0.056518555 -0.051086426 0.05859375
0000a0 00 a0 96 bd 00 a0 cb 3c 00 c0 d6 bd 00 c0 8e bc
       -0.07354736 0.024856567 -0.1048584 -0.017425537
0000b0 00 20 4f 3c 00 a0 53 3c 00 40 7b 3c 00 20 17 3d
       0.012641907 0.012916565 0.015335083 0.036895752
0000c0 00 a0 64 3d 00 20 37 3d 00 c0 37 3e 00 20 df bc
       0.05581665 0.044708252 0.17944336 -0.027236938
0000d0 00 40 2d 3d 00 80 c1 bd 00 00 c2 3b 00 00 1a bd
       0.042297363 -0.09448242 0.00592041 -0.037597656
0000e0 00 e0 72 3d 00 40 04 3d 00 80 d7 3d 00 c0 53 3c
       0.059295654 0.032287598 0.10522461 0.012924194
0000f0 00 80 1d bd 00 20 03 3b 00 c0 ee bc 00 c0 0f bd
       -0.03845215 0.0020008087 -0.029144287 -0.035095215
000100 00 40 55 3d 00 20 7b 3d 00 20 93 3d 00 20 8d 3d
       0.05206299 0.061309814 0.07183838 0.06890869
000110 00 a0 b1 bc 00 e0 9f bd 00 40 fc 3c 00 c0 cc bd
       -0.02168274 -0.078063965 0.030792236 -0.099975586
000120 00 a0 96 3d 00 80 43 3d 00 a0 8b 3d 00 00 a7 3d
       0.07354736 0.047729492 0.06817627 0.08154297
000130 00 60 6a 3d 00 60 96 bd 00 40 b5 3d 00 e0 45 3d
       0.05722046 -0.07342529 0.08850098 0.048309326
000140 00 e0 3b 3d 00 c0 4d bd 00 a0 c5 3c 00 e0 04 3c
       0.04586792 -0.050231934 0.024124146 0.008110046
000150 00 80 32 bc 00 00 0f bd 00 c0 af bc 00 a0 62 bc
       -0.010894775 -0.03491211 -0.021453857 -0.013832092
000160 00 20 ab 3c 00 00 a0 bc 00 a0 6e 3d 00 00 bb 3d
       0.020889282 -0.01953125 0.058258057 0.091308594
000170 00 a0 20 be 00 80 1a 3b 00 00 90 bd 00 80 06 bf
       -0.15686035 0.002357483 -0.0703125 -0.5253906
000180 00 00 8c bd 00 e0 c0 3b 00 c0 b7 be 00 80 27 bd
       -0.068359375 0.005886078 -0.35888672 -0.040893555
000190 00 60 e4 3c 00 80 0f bd 00 40 29 bc 00 20 9d 3d
       0.027877808 -0.03503418 -0.0103302 0.07672119
0001a0 00 c0 48 bc 00 40 cd bd 00 20 86 3d 00 c0 0c be
       -0.012252808 -0.10021973 0.06549072 -0.13745117
0001b0 00 e0 bd be 00 60 46 3d 00 80 28 3e 00 40 a9 3d
       -0.3708496 0.048431396 0.16455078 0.0826416
0001c0 00 80 f6 be 00 80 c9 be 00 c0 4b 3e 00 20 af 3c
       -0.4814453 -0.3935547 0.19897461 0.021377563
0001d0 00 00 cd 3d 00 40 62 3c 00 00 3d be 00 00 21 be
       0.100097656 0.013809204 -0.18457031 -0.15722656
0001e0 00 00 78 bd 00 c0 b2 3d 00 e0 63 3d 00 20 b1 3d
       -0.060546875 0.08728027 0.055633545 0.08648682
0001f0 00 00 01 3c 00 a0 c3 3c 00 80 1c bd 00 60 5b 3d
       0.007873535 0.023880005 -0.038208008 0.05355835
000200 00 80 10 3d 00 80 c8 be 00 20 cf 3d 00 a0 fe 3d
       0.03527832 -0.39160156 0.101135254 0.12432861
000210 00 60 3b bc 00 a0 2e be 00 60 cd bd 00 80 b3 3d
       -0.011436462 -0.17053223 -0.10028076 0.087646484
000220 00 20 14 bc 00 00 5c 3e 00 c0 dd 3d 00 c0 a4 be
       -0.0090408325 0.21484375 0.10827637 -0.32177734
000230 00 20 ed 3d 00 c0 66 be 00 20 ae 3c 00 a0 10 be
       0.11578369 -0.2253418 0.021255493 -0.14123535
000240 00 60 4c be 00 20 e6 bd 00 20 60 be 00 60 6d bd
       -0.19958496 -0.11236572 -0.21887207 -0.05795288
000250 00 40 fc bd 00 a0 11 be 00 20 e1 3a 00 e0 90 be
       -0.123168945 -0.14221191 0.0017175674 -0.28295898
000260 00 40 6b 3d 00 00 9e 3c 00 80 ba bc 00 80 91 be
       0.057434082 0.01928711 -0.022766113 -0.2841797
000270 00 80 f1 bd 00 60 8f 3d 00 40 d5 3d 00 80 82 3e
       -0.11791992 0.070007324 0.10412598 0.2548828
000280 00 e0 f6 bd 00 00 e3 3d 00 c0 28 3e 00 e0 13 bd
       -0.12054443 0.110839844 0.16479492 -0.036102295
000290 00 40 0c 3d 00 e0 fa bd 00 60 da bd 00 20 0d 3e
       0.034240723 -0.12249756 -0.10662842 0.13781738
0002a0 00 20 dc bd 00 a0 be 3d 00 80 8c 3d 00 c0 fd bc
       -0.10748291 0.09307861 0.068603516 -0.030975342
0002b0 00 60 70 3c 00 40 0f bb 00 00 45 3c 00 00 88 3c
       0.014671326 -0.0021858215 0.012023926 0.016601562
0002c0 00 c0 7c 3e 00 60 3d bd 00 c0 00 3d 00 c0 35 be
       0.24682617 -0.04623413 0.031433105 -0.17749023
0002d0 00 20 39 3e 00 40 80 bd 00 80 2e bd 00 00 9f bc
       0.18078613 -0.06262207 -0.04260254 -0.01940918
0002e0 00 80 a3 bc 00 00 5c 3e 00 20 ed 3d 00 c0 09 3e
       -0.019958496 0.21484375 0.11578369 0.13452148
0002f0 00 80 79 be 00 e0 8a be 00 20 27 3e 00 60 5e bb
       -0.24365234 -0.27124023 0.16320801 -0.0033931732
000300 00 e0 02 bd 00 e0 8f 3d 00 c0 33 bd 00 e0 d4 bd
       -0.031951904 0.070251465 -0.043884277 -0.10394287
000310 00 80 ab bc 00 20 ce bd 00 c0 94 bd 00 80 a6 bb
       -0.020935059 -0.10064697 -0.072631836 -0.0050811768
000320 00 e0 d3 ba 00 c0 c7 bd 00 00 05 bd 00 60 c6 3d
       -0.001616478 -0.09753418 -0.032470703 0.09686279
000330 00 a0 75 3d 00 20 73 3d 00 e0 65 3b 00 c0 e4 3b
       0.05996704 0.05935669 0.0035076141 0.006980896
000340 00 20 c9 3d 00 80 59 3d 00 20 94 3d 00 a0 92 bd
       0.09820557 0.053100586 0.07232666 -0.07159424
000350 00 c0 3c be 00 c0 dd bd 00 00 6a 37 00 20 59 3c
       -0.18432617 -0.10827637 1.3947487e-05 0.013252258
000360 00 80 f4 3c 00 80 00 3d 00 e0 47 be 00 e0 b6 bb
       0.029846191 0.03137207 -0.19519043 -0.005580902
000370 00 40 37 3d 00 a0 a7 3c 00 00 1d 3e 00 60 84 3c
       0.04473877 0.020462036 0.15332031 0.016159058
000380 00 60 01 bd 00 a0 95 bd 00 c0 36 3d 00 a0 8b bc
       -0.031585693 -0.07305908 0.0446167 -0.017044067
000390 00 80 37 3d 00 80 49 bd 00 60 02 3d 00 a0 47 bb
       0.044799805 -0.049194336 0.031829834 -0.0030460358
0003a0 00 e0 1c be 00 a0 46 bd 00 e0 9e be 00 a0 57 bd
       -0.15319824 -0.04849243 -0.31030273 -0.052642822
0003b0 00 60 2a 3d 00 e0 fe 3d 00 20 97 bd 00 00 ce 3c
       0.04159546 0.12445068 -0.073791504 0.025146484
0003c0 00 40 0a 3d 00 80 b8 3d 00 20 18 3d 00 c0 bf 3d
       0.03375244 0.09008789 0.037139893 0.09362793
0003d0 00 00 26 3c 00 00 01 bd 00 80 ea 3d 00 40 87 bc
       0.010131836 -0.03149414 0.11450195 -0.01651001
0003e0 00 40 da be 00 20 5f be 00 00 cd be 00 c0 6d be
       -0.42626953 -0.21789551 -0.40039062 -0.23217773
0003f0 00 a0 cf bd 00 e0 47 be 00 40 7c bd 00 a0 8c 3c
       -0.101379395 -0.19519043 -0.061584473 0.017166138

weight f4 [32]
000000 00 e0 14 40 00 00 ae 3f 00 60 98 3f 00 20 e0 3f
       2.3261719 1.359375 1.1904297 1.7509766
000010 00 80 a5 3f 00 20 1b 40 00 00 a4 3f 00 20 2b 40
       1.2929688 2.4238281 1.28125 2.6738281
000020 00 e0 30 40 00 60 1f 40 00 e0 7b 3f 00 60 53 3f
       2.7636719 2.4902344 0.9838867 0.8256836
000030 00 c0 a3 3f 00 00 92 3f 00 20 bd 3f 00 40 02 40
       1.2792969 1.140625 1.4775391 2.0351562
000040 00 c0 24 40 00 c0 16 3f 00 a0 d1 3f 00 40 be 3f
       2.5742188 0.5888672 1.6376953 1.4863281
000050 00 40 ac 3f 00 a0 11 40 00 40 ba 3f 00 20 55 3f
       1.3457031 2.2753906 1.4550781 0.83251953
000060 00 80 67 3f 00 00 88 3f 00 40 4a 3f 00 00 19 3f
       0.9042969 1.0625 0.79003906 0.59765625
000070 00 c0 c3 3f 00 20 6f 3f 00 00 c5 3f 00 a0 b4 3f
       1.5292969 0.93408203 1.5390625 1.4111328

bias f4 [32]
000000 00 20 5c be 00 a0 9d 3f 00 00 8c 3f 00 00 7f 3e
       -0.21496582 1.2314453 1.09375 0.24902344
000010 00 e0 20 3f 00 60 c8 be 00 40 9f 3f 00 a0 f6 be
       0.62841797 -0.39135742 1.2441406 -0.48168945
000020 00 20 38 bf 00 60 8d be 00 e0 0f 3e 00 60 0c 40
       -0.7192383 -0.27612305 0.14050293 2.1933594
000030 00 80 91 3f 00 e0 b6 3f 00 e0 e8 3e 00 60 3d bd
       1.1367188 1.4287109 0.45483398 -0.04623413
000040 00 20 06 bf 00 40 47 40 00 20 4b 3e 00 a0 2a be
       -0.5239258 3.1132812 0.19836426 -0.16662598
000050 00 e0 53 3f 00 20 3a be 00 20 31 3f 00 40 f7 3e
       0.8276367 -0.1817627 0.69189453 0.48291016
000060 00 00 97 3e 00 40 46 3f 00 60 02 3f 00 c0 22 40
       0.29492188 0.77441406 0.50927734 2.5429688
000070 00 60 46 bd 00 40 95 be 00 20 82 bf 00 00 e2 3e
       -0.048431396 -0.2915039 -1.0166016 0.44140625

running_mean f4 [32]
000000 00 e0 ba be 00 a0 2d be 00 60 08 3c 00 e0 61 be
       -0.36499023 -0.16955566 0.008323669 -0.22058105
000010 00 a0 89 bd 00 60 0c bf 00 60 9e be 00 a0 b9 be
       -0.06719971 -0.54833984 -0.30932617 -0.36254883
000020 00 20 31 be 00 80 db be 00 60 32 be 00 40 78 bd
       -0.17297363 -0.42871094 -0.17419434 -0.06060791
000030 00 a0 1a be 00 a0 23 bf 00 80 0f be 00 60 9e be
       -0.15100098 -0.63916016 -0.14013672 -0.30932617
000040 00 a0 ef be 00 40 1c 3e 00 60 ba bd 00 80 19 bf
       -0.46801758 0.15258789 -0.09100342 -0.5996094
000050 00 c0 e8 bd 00 c0 b6 be 00 a0 92 bd 00 e0 fb 3e
       -0.11364746 -0.3569336 -0.07159424 0.49194336
000060 00 00 5a 3e 00 00 65 be 00 e0 a6 3e 00 80 72 be
       0.21289062 -0.22363281 0.32592773 -0.2368164
000070 00 a0 23 be 00 a0 41 3e 00 20 14 be 00 a0 1e be
       -0.15979004 0.18908691 -0.14465332 -0.15490723

running_var f4 [32]
000000 00 40 9a 3e 00 40 5a 3e 00 00 18 3e 00 80 85 3e
       0.30126953 0.21313477 0.1484375 0.2607422
000010 00 20 33 3e 00 80 cc 3e 00 c0 76 3e 00 40 e7 3e
       0.17492676 0.39941406 0.2409668 0.45166016
000020 00 20 c9 3e 00 e0 1e 3f 00 e0 08 3e 00 60 c0 3e
       0.39282227 0.62060547 0.13366699 0.37573242
000030 00 60 fd 3d 00 00 58 3e 00 20 6d 3e 00 e0 33 3e
       0.12371826 0.2109375 0.23156738 0.17565918
000040 00 a0 db 3e 00 00 e4 3d 00 40 72 3e 00 00 6f 3e
       0.42895508 0.111328125 0.23657227 0.23339844
000050 00 20 f9 3d 00 60 80 3e 00 a0 f8 3d 00 00 7c 3e
       0.12164307 0.25073242 0.121398926 0.24609375
000060 00 20 85 3e 00 c0 05 3e 00 80 4b 3e 00 20 ee 3d
       0.26000977 0.13061523 0.19873047 0.11627197
000070 00 a0 48 3e 00 a0 12 3e 00 20 27 3e 00 c0 42 3e
       0.19592285 0.14318848 0.16320801 0.19018555

weight f4 [64, 32, 3, 3]
000000 00 e0 0f 3d 00 c0 c2 bc 00 00 dd 3c 00 a0 8f bc
       0.035125732 -0.023773193 0.026977539 -0.017532349
000010 00 60 11 bd 00 a0 71 3c 00 80 03 bc 00 00 30 3c
       -0.035491943 0.01474762 -0.008026123 0.0107421875
000020 00 80 89 3c 00 00 58 bc 00 a0 28 bd 00 c0 23 bc
       0.016784668 -0.013183594 -0.041168213 -0.009994507
000030 00 60 5b 3c 00 e0 be 3b 00 c0 72 bc 00 e0 bd bc
       0.013389587 0.0058250427 -0.014816284 -0.0231781
000040 00 00 96 3d 00 60 99 3a 00 e0 96 bb 00 e0 fd bb
       0.07324219 0.0011701584 -0.0046043396 -0.00774765
000050 00 40 2d 3c 00 c0 b1 3b 00 60 b5 3b 00 a0 40 bc
       0.010574341 0.0054244995 0.0055351257 -0.011756897
000060 00 00 a8 3a 00 e0 05 3d 00 80 17 bc 00 a0 60 3b
       0.0012817383 0.032684326 -0.009246826 0.0034275055
000070 00 00 01 3d 00 20 8a 3c 00 e0 85 3c 00 e0 af bc
       0.03149414 0.016860962 0.016342163 -0.021469116
000080 00 c0 3e 3d 00 20 4b 3c 00 20 11 bd 00 20 11 bd
       0.046569824 0.012397766 -0.03543091 -0.03543091
000090 00 20 5b 3c 00 80 0c bd 00 a0 04 bd 00 60 5c 3c
       0.013374329 -0.034301758 -0.03237915 0.013450623
0000a0 00 40 11 3b 00 20 d4 3b 00 20 01 3c 00 20 73 3c
       0.002216339 0.0064735413 0.007881165 0.014839172
0000b0 00 00 6c 3a 00 e0 18 3c 00 80 b4 bb 00 e0 e7 3c
       0.00090026855 0.0093307495 -0.005508423 0.028305054
0000c0 00 80 f8 bb 00 e0 94 bd 00 80 ab 3c 00 60 25 3d
       -0.007583618 -0.07269287 0.020935059 0.040374756
0000d0 00 60 20 3d 00 e0 a6 bc 00 80 5a 3c 00 00 35 3c
       0.039154053 -0.020370483 0.013336182 0.011047363
0000e0 00 c0 30 bc 00 00 b9 3d 00 60 f9 3e 00 80 6b 3e
       -0.010787964 0.09033203 0.48706055 0.22998047
0000f0 00 00 3f bd 00 c0 16 3e 00 40 0b 3e 00 20 8f 3c
       -0.04663086 0.1472168 0.13598633 0.017471313
000100 00 60 91 3c 00 40 95 3d 00 20 8e bc 00 a0 0e be
       0.017745972 0.07287598 -0.017349243 -0.13928223
000110 00 60 82 bd 00 c0 00 bc 00 40 10 3c 00 20 4e bc
       -0.06365967 -0.007858276 0.008804321 -0.012580872
000120 00 a0 4e bc 00 20 c0 bb 00 60 f9 bc 00 60 42 bc
       -0.012611389 -0.0058631897 -0.030441284 -0.0118637085
000130 00 60 56 3d 00 80 10 3d 00 a0 d0 bc 00 40 1f ba
       0.052337646 0.03527832 -0.025466919 -0.00060749054
000140 00 a0 c1 3b 00 40 cd ba 00 00 6b bb 00 a0 39 bc
       0.005908966 -0.0015659332 -0.0035858154 -0.011329651
000150 00 20 4f 3b 00 80 d9 3b 00 a0 9a 3c 00 c0 81 3b
       0.0031604767 0.0066375732 0.018875122 0.0039596558
000160 00 40 4e 3d 00 e0 4d 3c 00 c0 26 bd 00 00 95 3c
       0.050354004 0.012565613 -0.04071045 0.018188477
000170 00 c0 29 bd 00 40 75 3d 00 e0 62 bc 00 20 d8 bd
       -0.04144287 0.05987549 -0.013847351 -0.105529785
000180 00 20 74 bc 00 a0 43 3c 00 e0 11 3e 00 20 a4 3d
       -0.0149002075 0.011940002 0.14245605 0.08013916
000190 00 80 c8 3c 00 e0 e2 3c 00 80 db bc 00 60 23 be
       0.024475098 0.027694702 -0.026794434 -0.1595459
0001a0 00 e0 27 bd 00 c0 7c 3c 00 e0 10 bc 00 c0 b6 bd
       -0.040985107 0.015426636 -0.008842468 -0.0892334
0001b0 00 e0 a6 3c 00 e0 17 bc 00 00 83 bc 00 40 87 ba
       0.020370483 -0.009269714 -0.015991211 -0.0010318756
0001c0 00 60 bb 3b 00 80 a3 3c 00 80 92 3c 00 20 b9 bb
       0.005718231 0.019958496 0.0178833 -0.0056495667
0001d0 00 20 7c 3c 00 e0 be 3c 00 00 d3 3d 00 00 be bc
       0.015388489 0.02330017 0.103027344 -0.02319336
0001e0 00 00 dd 3c 00 e0 13 3e 00 00 7d 3d 00 c0 92 bc
       0.026977539 0.14440918 0.061767578 -0.017913818
0001f0 00 80 06 be 00 80 fe 3d 00 60 d7 3b 00 60 68 bc
       -0.13134766 0.12426758 0.0065727234 -0.014183044
000200 00 40 66 bc 00 20 b0 bc 00 40 0b bd 00 60 0c bd
       -0.014053345 -0.021499634 -0.033996582 -0.03427124
000210 00 e0 12 3d 00 00 93 3c 00 e0 85 3b 00 e0 83 bc
       0.035858154 0.017944336 0.004085541 -0.016098022
000220 00 e0 23 bd 00 a0 00 bc 00 80 2c bb 00 e0 a7 bb
       -0.040008545 -0.007850647 -0.002632141 -0.0051231384
000230 00 40 63 bd 00 20 8b ba 00 a0 64 3d 00 80 2f bc
       -0.055480957 -0.0010614395 0.05581665 -0.01071167
000240 00 c0 cc bc 00 e0 45 bd 00 40 33 bd 00 20 c0 3c
       -0.024993896 -0.048309326 -0.043762207 0.023452759
000250 00 e0 61 3d 00 a0 bc 3b 00 c0 d0 3b 00 40 85 3c
       0.055145264 0.005756378 0.0063705444 0.01626587
000260 00 c0 a9 3c 00 40 76 bd 00 00 57 bd 00 80 8d bd
       0.020721436 -0.06011963 -0.052490234 -0.0690918
000270 00 60 0d bd 00 c0 8d bc 00 40 2d bd 00 40 50 bc
       -0.03451538 -0.017303467 -0.042297363 -0.012710571
000280 00 a0 d0 3c 00 a0 22 bd 00 a0 65 3b 00 40 5b bb
       0.025466919 -0.03970337 0.0035037994 -0.0033454895
000290 00 80 05 bb 00 c0 81 bc 00 c0 b5 3b 00 e0 86 bc
       -0.0020370483 -0.015838623 0.00554657 -0.016464233
0002a0 00 20 11 bb 00 00 a4 3c 00 20 ab 3c 00 80 c1 bb
       -0.0022144318 0.020019531 0.020889282 -0.0059051514
0002b0 00 c0 89 3c 00 e0 0e be 00 80 d0 3c 00 c0 74 3e
       0.016815186 -0.13952637 0.02545166 0.23901367
0002c0 00 e0 ea bc 00 60 6e bd 00 00 89 3c 00 40 31 3e
       -0.028671265 -0.05819702 0.016723633 0.1730957
0002d0 00 40 05 bc 00 00 02 3b 00 a0 a8 3c 00 60 90 bc
       -0.008132935 0.0019836426 0.020584106 -0.017623901
0002e0 00 20 fc 3a 00 60 49 bd 00 80 85 b9 00 40 4c 3d
       0.0019235611 -0.04916382 -0.00025463104 0.049865723
0002f0 00 80 5f 3c 00 80 20 bc 00 a0 88 3c 00 e0 6a bb
       0.013641357 -0.009796143 0.016677856 -0.003583908
000300 00 a0 8c bc 00 e0 af 3d 00 80 a7 bc 00 80 c7 bc
       -0.017166138 0.085876465 -0.020446777 -0.024353027
000310 00 60 67 ba 00 c0 70 3a 00 a0 73 3b 00 20 fa 3c
       -0.0008826256 0.00091838837 0.0037174225 0.030532837
000320 00 00 f8 3c 00 40 2b bc 00 a0 0d 3d 00 40 94 3b
       0.030273438 -0.0104522705 0.034576416 0.004524231
000330 00 40 2d 3c 00 e0 8c 3c 00 20 00 bd 00 20 ae bc
       0.010574341 0.017196655 -0.031280518 -0.021255493
000340 00 40 22 bb 00 60 a1 bc 00 00 13 3b 00 e0 f2 bd
       -0.0024757385 -0.019699097 0.002243042 -0.11859131
000350 00 00 d6 bd 00 c0 8e 3c 00 20 68 bd 00 e0 b4 bd
       -0.10449219 0.017425537 -0.056671143 -0.08831787
000360 00 a0 0c 3c 00 a0 1b 3d 00 60 f8 bc 00 c0 2a bb
       0.008583069 0.037994385 -0.030319214 -0.0026054382
000370 00 60 20 3e 00 40 82 3c 00 60 05 bc 00 40 6c 3b
       0.15661621 0.015899658 -0.008140564 0.003604889
000380 00 60 17 3e 00 c0 81 3c 00 40 65 bc 00 80 d4 3b
       0.14782715 0.015838623 -0.01399231 0.0064849854
000390 00 60 b4 bc 00 c0 6d bd 00 a0 59 bd 00 00 ad 3c
       -0.022018433 -0.058044434 -0.053131104 0.021118164
0003a0 00 00 35 bd 00 e0 86 bc 00 60 2a bc 00 20 d1 bc
       -0.044189453 -0.016464233 -0.010398865 -0.025527954
0003b0 00 a0 c0 3c 00 20 2b bc 00 00 14 bd 00 c0 d1 bc
       0.023513794 -0.010444641 -0.036132812 -0.025604248
0003c0 00 00 88 bc 00 c0 08 3c 00 20 d9 bd 00 80 27 3d
       -0.016601562 0.008346558 -0.10601807 0.040893555
0003d0 00 a0 4e 3d 00 20 eb 3d 00 00 ba bc 00 40 4d be
       0.050445557 0.11480713 -0.022705078 -0.20043945
0003e0 00 80 ba bd 00 60 04 3c 00 e0 91 bd 00 40 ad bd
       -0.09106445 0.008079529 -0.07122803 -0.08459473
0003f0 00 60 12 bc 00 e0 4d 3e 00 00 21 3e 00 40 3c bd
       -0.008934021 0.2010498 0.15722656 -0.045959473

weight f4 [64]
000000 00 a0 26 40 00 20 49 40 00 c0 05 40 00 c0 47 40
       2.6035156 3.1425781 2.0898438 3.1210938
000010 00 c0 4f 3f 00 e0 2c 40 00 a0 0e 40 00 40 39 40
       0.81152344 2.7011719 2.2285156 2.8945312
000020 00 60 41 40 00 60 06 40 00 00 0c 40 00 c0 29 40
       3.0214844 2.0996094 2.1875 2.6523438
000030 00 40 19 40 00 00 b6 3f 00 40 c7 3f 00 40 51 40
       2.3945312 1.421875 1.5566406 3.2695312
000040 00 a0 22 40 00 20 2b 40 00 a0 5f 40 00 00 11 40
       2.5410156 2.6738281 3.4941406 2.265625
000050 00 00 25 40 00 20 41 40 00 40 00 40 00 e0 02 40
       2.578125 3.0175781 2.0039062 2.0449219
000060 00 80 3e 40 00 c0 41 40 00 00 29 40 00 40 29 40
       2.9765625 3.0273438 2.640625 2.6445312
000070 00 40 3a 40 00 80 51 40 00 e0 2e 40 00 80 0a 40
       2.9101562 3.2734375 2.7324219 2.1640625
000080 00 00 27 40 00 e0 23 40 00 c0 03 40 00 e0 01 40
       2.609375 2.5605469 2.0585938 2.0292969
000090 00 00 26 40 00 80 0e 40 00 20 27 40 00 80 eb 3f
       2.59375 2.2265625 2.6113281 1.8398438
0000a0 00 a0 22 40 00 20 5c 40 00 80 48 40 00 20 15 40
       2.5410156 3.4394531 3.1328125 2.3300781
0000b0 00 a0 25 40 00 20 15 40 00 00 1b 40 00 a0 e9 3f
       2.5878906 2.3300781 2.421875 1.8251953
0000c0 00 60 11 40 00 80 19 40 00 60 1a 40 00 40 16 40
       2.2714844 2.3984375 2.4121094 2.3476562
0000d0 00 80 c6 3f 00 00 25 40 00 a0 05 40 00 80 18 40
       1.5507812 2.578125 2.0878906 2.3828125
0000e0 00 00 2e 40 00 80 f8 3f 00 60 25 40 00 80 43 40
       2.71875 1.9414062 2.5839844 3.0546875
0000f0 00 a0 10 40 00 80 28 40 00 20 33 40 00 40 b1 3f
       2.2597656 2.6328125 2.7988281 1.3847656

bias f4 [64]
000000 00 20 25 bf 00 60 94 bf 00 00 22 40 00 80 1e bf
       -0.64501953 -1.1591797 2.53125 -0.6191406
000010 00 e0 ad bb 00 e0 c2 be 00 80 22 bf 00 40 6a bf
       -0.005306244 -0.38061523 -0.6347656 -0.91503906
000020 00 a0 a6 bf 00 20 ab be 00 e0 ca be 00 20 92 be
       -1.3017578 -0.33422852 -0.39624023 -0.2854004
000030 00 a0 a9 be 00 c0 67 3e 00 40 ac be 00 c0 3b bf
       -0.33129883 0.22631836 -0.33642578 -0.73339844
000040 00 60 d8 be 00 a0 3e bf 00 20 7f be 00 00 07 bf
       -0.42260742 -0.7446289 -0.24914551 -0.52734375
000050 00 60 61 bf 00 e0 98 bf 00 40 17 40 00 40 92 be
       -0.8803711 -1.1943359 2.3632812 -0.28564453
000060 00 80 9f bf 00 60 04 bf 00 80 64 bf 00 20 06 bf
       -1.2460938 -0.51708984 -0.8925781 -0.5239258
000070 00 c0 9e bf 00 40 f8 bf 00 00 47 bf 00 a0 02 bf
       -1.2402344 -1.9394531 -0.77734375 -0.5102539
000080 00 80 4c bf 00 c0 16 bf 00 20 90 be 00 c0 11 40
       -0.7988281 -0.5888672 -0.28149414 2.2773438
000090 00 a0 07 bf 00 c0 dc be 00 c0 53 bf 00 e0 9b be
       -0.52978516 -0.43115234 -0.82714844 -0.30444336
0000a0 00 60 5a bf 00 a0 51 bf 00 20 4d 3f 00 c0 73 bf
       -0.85302734 -0.81884766 0.80126953 -0.95214844
0000b0 00 60 0c bf 00 20 dc be 00 00 12 bf 00 e0 8d 3f
       -0.54833984 -0.42993164 -0.5703125 1.1083984
0000c0 00 80 a8 bf 00 00 9e be 00 80 a1 be 00 a0 35 bf
       -1.3164062 -0.30859375 -0.3154297 -0.70947266
0000d0 00 60 08 40 00 40 68 bf 00 c0 fb 3f 00 60 35 bf
       2.1308594 -0.90722656 1.9667969 -0.7084961
0000e0 00 c0 19 bf 00 60 9c be 00 20 8b be 00 20 09 bf
       -0.60058594 -0.30541992 -0.27172852 -0.53564453
0000f0 00 c0 b6 be 00 a0 4c bf 00 80 36 bf 00 20 69 bf
       -0.3569336 -0.7993164 -0.7128906 -0.91064453

running_mean f4 [64]
000000 00 a0 55 be 00 00 3c 3d 00 c0 a6 3f 00 40 14 3f
       -0.20861816 0.045898438 1.3027344 0.57910156
000010 00 80 b0 bf 00 20 c2 bd 00 80 a0 bf 00 a0 ba 3d
       -1.3789062 -0.0947876 -1.2539062 0.09112549
000020 00 a0 43 bf 00 e0 41 c0 00 60 8e bf 00 c0 e0 be
       -0.76416016 -3.0292969 -1.1123047 -0.43896484
000030 00 20 a4 bf 00 e0 95 bf 00 c0 eb be 00 20 18 3f
       -1.2822266 -1.1708984 -0.46044922 0.5942383
000040 00 00 95 bf 00 60 90 be 00 c0 45 bd 00 a0 9d be
       -1.1640625 -0.28198242 -0.04827881 -0.30786133
000050 00 c0 51 be 00 80 55 be 00 00 8c 3f 00 00 1a bf
       -0.20483398 -0.2084961 1.09375 -0.6015625
000060 00 00 0c bd 00 60 bb 3e 00 80 b2 3e 00 00 29 bf
       -0.034179688 0.3659668 0.3486328 -0.66015625
000070 00 00 49 bf 00 a0 1d 3d 00 60 3e 3c 00 00 a0 bf
       -0.78515625 0.038482666 0.011619568 -1.25
000080 00 40 23 bf 00 e0 73 3f 00 c0 07 c0 00 a0 66 bf
       -0.6376953 0.9526367 -2.1210938 -0.9008789
000090 00 00 d5 bc 00 c0 64 bd 00 00 61 bf 00 20 60 bf
       -0.026000977 -0.055847168 -0.87890625 -0.8754883
0000a0 00 00 30 bf 00 40 84 3f 00 40 7f bf 00 80 97 3e
       -0.6875 1.0332031 -0.9970703 0.29589844
0000b0 00 a0 ab 3e 00 c0 4d 3f 00 60 3c 3e 00 e0 bf bf
       0.33520508 0.80371094 0.18395996 -1.4990234
0000c0 00 40 67 c0 00 a0 ed bd 00 20 50 be 00 e0 3d be
       -3.6132812 -0.11602783 -0.20324707 -0.1854248
0000d0 00 40 c2 c0 00 80 96 be 00 60 c5 bf 00 60 a5 bf
       -6.0703125 -0.2939453 -1.5419922 -1.2919922
0000e0 00 00 46 bf 00 c0 03 bf 00 60 46 bf 00 80 9f be
       -0.7734375 -0.51464844 -0.77490234 -0.31152344
0000f0 00 a0 2c bf 00 c0 b9 3e 00 60 4e bf 00 40 b0 bd
       -0.6743164 0.36279297 -0.80615234 -0.08605957

running_var f4 [64]
000000 00 a0 95 3f 00 00 32 3f 00 20 0c 3f 00 a0 6b 3f
       1.1689453 0.6953125 0.5473633 0.92041016
000010 00 20 2f 3f 00 40 7e 3f 00 80 54 3f 00 a0 35 3f
       0.68408203 0.99316406 0.8300781 0.70947266
000020 00 80 44 3f 00 20 84 3f 00 60 71 3f 00 60 b0 3f
       0.7675781 1.0322266 0.9428711 1.3779297
000030 00 00 af 3f 00 60 75 3f 00 c0 3c 3f 00 00 a1 3f
       1.3671875 0.9584961 0.7373047 1.2578125
000040 00 c0 a0 3f 00 60 93 3f 00 40 ce 3f 00 00 6e 3f
       1.2558594 1.1513672 1.6113281 0.9296875
000050 00 00 45 3f 00 e0 56 3f 00 00 00 3f 00 40 7f 3f
       0.76953125 0.83935547 0.5 0.9970703
000060 00 40 3e 3f 00 40 58 3f 00 a0 7a 3f 00 20 95 3f
       0.74316406 0.84472656 0.9790039 1.1650391
000070 00 00 2d 3f 00 a0 10 3f 00 00 67 3f 00 e0 61 3f
       0.67578125 0.5649414 0.90234375 0.8823242
000080 00 80 81 3f 00 00 8d 3f 00 40 82 3f 00 c0 0d 3f
       1.0117188 1.1015625 1.0175781 0.55371094
000090 00 80 87 3f 00 80 8a 3f 00 a0 b9 3f 00 60 55 3f
       1.0585938 1.0820312 1.4501953 0.8334961
0000a0 00 20 67 3f 00 a0 a5 3f 00 c0 c1 3f 00 c0 70 3f
       0.90283203 1.2939453 1.5136719 0.9404297
0000b0 00 a0 66 3f 00 00 88 3f 00 00 8d 3f 00 a0 91 3f
       0.9008789 1.0625 1.1015625 1.1376953
0000c0 00 e0 d9 3f 00 00 c0 3f 00 20 7d 3f 00 60 5e 3f
       1.7021484 1.5 0.98876953 0.86865234
0000d0 00 20 88 3f 00 c0 79 3f 00 00 0a 3f 00 00 69 3f
       1.0634766 0.97558594 0.5390625 0.91015625
0000e0 00 a0 6b 3f 00 60 a0 3f 00 00 95 3f 00 c0 ce 3f
       0.92041016 1.2529297 1.1640625 1.6152344
0000f0 00 20 71 3f 00 80 83 3f 00 40 d4 3f 00 00 2e 3f
       0.94189453 1.0273438 1.6582031 0.6796875
