models/wei1.pt (torch_old, 195394 bytes, 20 tensors)

weight f4 [32, 12, 3, 3]
000000 06 0f 6c 3d 13 c5 80 3d eb 49 aa 3d d5 7d b5 3d
       0.057631515 0.06287589 0.0831488 0.08861891
000010 b6 e5 50 3d e1 ed a2 3d 81 ca c2 3d 00 2f e1 3c
       0.05100032 0.07955528 0.09511281 0.027488232
000020 50 9f 50 bc 7e 0b 3a 3d 46 5f 1f bd 44 b6 e3 bc
       -0.012733296 0.045421116 -0.03890922 -0.027796872
000030 aa 49 4f 3d 8b 5d 7c bd 2c 05 a4 bd a2 10 19 3d
       0.05060736 -0.061612647 -0.08008799 0.037369378
000040 08 36 03 3c f4 33 b7 bd 1c 6b ea 3c 5c f4 12 bd
       0.0080084875 -0.08945456 0.028615527 -0.03587757
000050 00 41 25 ba 40 bc 15 bc de bb 37 3d 72 e0 39 3d
       -0.0006303936 -0.009139121 0.0448569 0.045380063
000060 35 57 8a 3d 8e d1 2d 3d 54 a3 5d bd 81 55 9c 3d
       0.06754915 0.042436175 -0.05411084 0.07633496
000070 71 bd 9b 3d af cf 81 3d f8 15 2b 3c 3c 70 8d 3c
       0.076044925 0.063384406 0.0104422495 0.017265432
000080 98 35 b3 3c a4 99 87 3c b4 d4 56 bd 1a 66 92 bd
       0.021876141 0.016552754 -0.052448943 -0.071483806
000090 e0 9f 4e 3c f6 67 1d 3d 49 27 8c 3d 3c fe ad bc
       0.012611359 0.038429223 0.068434305 -0.021239392
0000a0 56 99 4a bd 32 41 64 3d ae 33 11 3d d9 63 c0 3d
       -0.04946264 0.055726238 0.035449676 0.093940444
0000b0 e1 e1 c0 3d f4 cf 8f bd dd 9d 8f 3d 6a e9 7a 3d
       0.09418083 -0.07022086 0.07012532 0.061257757
0000c0 ac 10 f5 3c 4a de 6d 3d ca e4 4c bd 8c a1 93 bc
       0.029915176 0.05807332 -0.050022878 -0.018021367
0000d0 29 46 b0 bd 34 5e eb bc fe 0b 49 3d 62 58 1e 3d
       -0.08607132 -0.028731443 0.049083702 0.038658507
0000e0 ac 2e cd 3c db 45 bd bd 7c 1c bd bd c0 0d 2a bc
       0.025046669 -0.092418395 -0.092339486 -0.010379255
0000f0 16 f0 9f bd 26 97 87 bd d2 98 73 3d 2b 6c 78 bd
       -0.07809465 -0.06620626 0.059471913 -0.060650032
000100 7c 23 a3 bd 38 be f7 bc c2 dd 58 3d d0 68 a5 bd
       -0.079657525 -0.03024207 0.05294586 -0.08076632
000110 23 5f c4 3d 86 0e 71 3d b6 d1 87 bd f7 5b bd bd
       0.095884584 0.05885174 -0.06631796 -0.092460565
000120 30 9f 31 bc 70 1e c2 bd 36 de 75 3d 9f ca 69 bd
       -0.010841176 -0.09478462 0.06002637 -0.057078
000130 c6 d4 7c 3d df 77 66 bd c5 0d a1 3d 00 f7 ad bc
       0.061726354 -0.05626666 0.078639545 -0.021235943
000140 8e 12 24 3d bc 52 93 bc fa 12 5e 3d c7 8d 9c 3d
       0.040056758 -0.017983787 0.054217316 0.076442294
000150 bc 3e 20 bd b1 03 a1 3d 36 ff 59 3d e0 67 ae 3c
       -0.03912233 0.07862032 0.053221904 0.021289766
000160 f3 8a 91 3d 8d 7c c4 3d c0 90 2e bc ac 22 90 3c
       0.071065806 0.09594069 -0.010654628 0.017594658
000170 1c 13 5d bd 28 22 23 3c e7 0e 9a 3d 35 6a a0 3d
       -0.053973302 0.009956874 0.07522374 0.078327574
000180 09 b8 9f 3d 34 de e1 3c 6b 02 0f bd a5 bc 49 bd
       0.07798774 0.027571775 -0.034914415 -0.04925217
000190 00 b6 e6 bb 7c 2d 19 bd f3 9f 6f bd fa 73 1a bd
       -0.007040739 -0.037396893 -0.05850215 -0.03770826
0001a0 67 9a b5 3d 66 c3 75 bd 50 25 28 bc 6a 22 4b 3d
       0.088673405 -0.0600008 -0.010262802 0.049593367
0001b0 1a 22 30 3d a3 c2 0b bd b1 c8 95 3d 6e ed 73 3d
       0.04300127 -0.034121167 0.073136695 0.059552602
0001c0 66 f9 7a 3d 6e ee 7f 3d 3c c1 45 bd 08 a9 2c 3c
       0.061273 0.062483244 -0.048279986 0.010538347
0001d0 74 26 7c bd fe 2d 61 3d e7 e4 c1 3d c8 e3 08 3c
       -0.06156011 0.054975502 0.09467488 0.0083550885
0001e0 93 1c 19 bd 47 70 90 3d d7 66 bc 3d ad 0b af 3d
       -0.037380766 0.07052665 0.09199303 0.08547149
0001f0 df b3 82 bd ba 23 26 3d 34 d0 8f 3c 89 94 c3 3d
       -0.06381964 0.040561415 0.017555334 0.09549815
000200 15 a3 99 3d ab 75 89 bd ef 38 b8 bd 60 01 1c 3c
       0.075018086 -0.067118965 -0.08995234 0.009521812
000210 e4 dc b1 bc 88 f0 2e 3c 7f 3b af 3d 30 76 ef 3b
       -0.021711774 0.010677464 0.0855627 0.00730779
000220 fd 24 b5 3d f6 a9 66 3d a8 fa ce 3c 3d 2f b7 bd
       0.088449456 0.05631443 0.025266007 -0.08944557
000230 af d3 86 bd 55 9e a7 3d c0 cb b9 ba 80 10 ac bc
       -0.06583344 0.08184496 -0.0014175102 -0.021003962
000240 5e 6f bf bd 90 bc e2 bc 1e 1f 73 3d 78 3d b7 3c
       -0.093474135 -0.027677804 0.059355848 0.022368178
000250 d9 11 c4 3d 52 7d 4a 3d e0 8f 21 bc a0 bc de 3c
       0.09573717 0.04943592 -0.009860963 0.027189553
000260 2b 4f a0 3d fa d7 5a 3d d1 81 a4 3d 88 ed 34 3c
       0.078276 0.053428628 0.08032573 0.01104296
000270 97 42 b3 3d 3f 1a c1 3d e0 5b f9 3b 69 67 90 3d
       0.087529354 0.09428834 0.0076098293 0.07050974
000280 83 04 23 bd c1 42 bf 3d 64 b8 d9 3c 03 c8 a8 bd
       -0.039799225 0.09338904 0.026577182 -0.08241274
000290 36 f0 90 bd 90 2d 1f bc e4 5b b9 bd 2a a7 09 3d
       -0.070770666 -0.009715453 -0.0905073 0.033606686
0002a0 24 78 95 bd 6a a2 1e 3d 66 98 8a bd fa 2a a9 bd
       -0.07298306 0.03872911 -0.06767349 -0.0826015
0002b0 7d a4 79 bd d4 b1 be bc a3 60 bf 3d 39 09 ab bd
       -0.060947884 -0.023278154 0.09344604 -0.083513685
0002c0 71 0a ac 3d e6 f4 06 3d 2c 5e 2c bd 24 85 f5 bc
       0.08400429 0.032948397 -0.042081997 -0.029970713
0002d0 8c 9d 67 bd 0d 11 82 3d 22 c0 03 bd db 4b 37 bd
       -0.056546733 0.063509084 -0.032165654 -0.044750076
0002e0 0f 39 99 bd 40 66 32 bc cb 02 c2 3d 62 77 33 bd
       -0.07481586 -0.010888636 0.09473189 -0.043815024
0002f0 09 a6 86 bd 22 4a 6c 3d ea 04 6d 3d b8 b1 9c 3c
       -0.065746374 0.057687886 0.057866015 0.019127712
000300 14 53 e9 bc d2 81 6a 3d b0 e4 ee bb 70 2e b1 3c
       -0.028481998 0.057252713 -0.0072904453 0.021628588
000310 d7 df 88 3d 22 4e 07 bd 7e 37 b7 bd 68 fb 61 3c
       0.06683319 -0.033033498 -0.08946131 0.01379285
000320 74 29 8c bc 50 02 90 bc 07 d6 b3 3d 66 bf 25 3d
       -0.01710961 -0.017579228 0.08781057 0.040465735
000330 09 dd 0e bd 8c 30 e2 bc 0f 59 b6 3d 33 a5 98 3d
       -0.034878764 -0.02761104 0.08903705 0.07453384
000340 20 62 73 bb 18 8f 89 bd 40 77 86 3b d3 54 5a bd
       -0.0037137344 -0.06716746 0.004103571 -0.05330355
000350 ec bf 26 bd cc d5 ee 3c 20 11 2d 3c e0 39 99 3c
       -0.040710375 0.02915468 0.010563165 0.018704355
000360 56 68 c3 bd aa e1 b0 bd 45 49 0c bd d0 2e 80 3c
       -0.09541385 -0.08636792 -0.034249563 0.015647322
000370 31 26 9e 3d 89 96 85 3d 58 ed 09 bd 6e c1 7b 3d
       0.07722128 0.06522853 -0.033673614 0.061463766
000380 6c f4 fd 3c 38 69 54 bd ea 86 3f 3d c0 98 ff 3b
       0.031000338 -0.051858157 0.046759523 0.0078001916
000390 f8 69 69 3c c0 74 d7 bb d4 2d c8 bc f0 b1 70 bd
       0.014246456 -0.006575197 -0.024435915 -0.058763444
0003a0 50 46 7f bc 00 89 57 3a ef 30 b9 3d c7 f9 82 3d
       -0.015580729 0.0008222014 0.090425365 0.063952975
0003b0 2d 09 ab 3d 00 4f ef bc b8 34 6f bd e1 15 2f bd
       0.083513595 -0.029212475 -0.058399886 -0.042745475
0003c0 d0 e3 41 3c 58 ef 54 bd 7f 39 b3 3d 43 df 9d 3d
       0.0118341 -0.05198607 0.08751201 0.077085994
0003d0 52 7a 04 3d 1c 47 fc 3c c0 29 33 3c f1 a1 27 bd
       0.032343216 0.030795626 0.010935247 -0.040925924
0003e0 5b 15 81 3d e7 bf 88 3d 90 79 85 bc 83 37 99 3d
       0.06302901 0.066772275 -0.016293317 0.07481291
0003f0 76 06 56 3d 15 86 59 bd ba e3 22 bd 2b fb a6 3d
       0.052252255 -0.053106386 -0.03976796 0.08153375

weight f4 [32]
000000 00 00 80 3f 00 00 80 3f 00 00 80 3f 00 00 80 3f
       1.0 1.0 1.0 1.0
000010 00 00 80 3f 00 00 80 3f 00 00 80 3f 00 00 80 3f
       1.0 1.0 1.0 1.0
000020 00 00 80 3f 00 00 80 3f 00 00 80 3f 00 00 80 3f
       1.0 1.0 1.0 1.0
000030 00 00 80 3f 00 00 80 3f 00 00 80 3f 00 00 80 3f
       1.0 1.0 1.0 1.0
000040 00 00 80 3f 00 00 80 3f 00 00 80 3f 00 00 80 3f
       1.0 1.0 1.0 1.0
000050 00 00 80 3f 00 00 80 3f 00 00 80 3f 00 00 80 3f
       1.0 1.0 1.0 1.0
000060 00 00 80 3f 00 00 80 3f 00 00 80 3f 00 00 80 3f
       1.0 1.0 1.0 1.0
000070 00 00 80 3f 00 00 80 3f 00 00 80 3f 00 00 80 3f
       1.0 1.0 1.0 1.0

bias f4 [32]
000000 00 00 00 00 00 00 00 00 00 00 00 00 00 00 00 00
       0.0 0.0 0.0 0.0
000010 00 00 00 00 00 00 00 00 00 00 00 00 00 00 00 00
       0.0 0.0 0.0 0.0
000020 00 00 00 00 00 00 00 00 00 00 00 00 00 00 00 00
       0.0 0.0 0.0 0.0
000030 00 00 00 00 00 00 00 00 00 00 00 00 00 00 00 00
       0.0 0.0 0.0 0.0
000040 00 00 00 00 00 00 00 00 00 00 00 00 00 00 00 00
       0.0 0.0 0.0 0.0
000050 00 00 00 00 00 00 00 00 00 00 00 00 00 00 00 00
       0.0 0.0 0.0 0.0
000060 00 00 00 00 00 00 00 00 00 00 00 00 00 00 00 00
       0.0 0.0 0.0 0.0
000070 00 00 00 00 00 00 00 00 00 00 00 00 00 00 00 00
       0.0 0.0 0.0 0.0

running_mean f4 [32]
000000 00 00 00 00 00 00 00 00 00 00 00 00 00 00 00 00
       0.0 0.0 0.0 0.0
000010 00 00 00 00 00 00 00 00 00 00 00 00 00 00 00 00
       0.0 0.0 0.0 0.0
000020 00 00 00 00 00 00 00 00 00 00 00 00 00 00 00 00
       0.0 0.0 0.0 0.0
000030 00 00 00 00 00 00 00 00 00 00 00 00 00 00 00 00
       0.0 0.0 0.0 0.0
000040 00 00 00 00 00 00 00 00 00 00 00 00 00 00 00 00
       0.0 0.0 0.0 0.0
000050 00 00 00 00 00 00 00 00 00 00 00 00 00 00 00 00
       0.0 0.0 0.0 0.0
000060 00 00 00 00 00 00 00 00 00 00 00 00 00 00 00 00
       0.0 0.0 0.0 0.0
000070 00 00 00 00 00 00 00 00 00 00 00 00 00 00 00 00
       0.0 0.0 0.0 0.0

running_var f4 [32]
000000 00 00 80 3f 00 00 80 3f 00 00 80 3f 00 00 80 3f
       1.0 1.0 1.0 1.0
000010 00 00 80 3f 00 00 80 3f 00 00 80 3f 00 00 80 3f
       1.0 1.0 1.0 1.0
000020 00 00 80 3f 00 00 80 3f 00 00 80 3f 00 00 80 3f
       1.0 1.0 1.0 1.0
000030 00 00 80 3f 00 00 80 3f 00 00 80 3f 00 00 80 3f
       1.0 1.0 1.0 1.0
000040 00 00 80 3f 00 00 80 3f 00 00 80 3f 00 00 80 3f
       1.0 1.0 1.0 1.0
000050 00 00 80 3f 00 00 80 3f 00 00 80 3f 00 00 80 3f
       1.0 1.0 1.0 1.0
000060 00 00 80 3f 00 00 80 3f 00 00 80 3f 00 00 80 3f
       1.0 1.0 1.0 1.0
000070 00 00 80 3f 00 00 80 3f 00 00 80 3f 00 00 80 3f
       1.0 1.0 1.0 1.0

weight f4 [64, 32, 3, 3]
000000 dd ba 15 3d fb 98 3a bd be fc ce bc 25 db 04 3d
       0.03655516 -0.04555605 -0.025267001 0.032435555
000010 04 4a 68 3c e3 12 59 3d 7d cd 04 3d 2e 1e 9c 3c
       0.014177803 0.052996527 0.03242253 0.01905736
000020 1f 71 23 3d a5 56 3c 3d e8 d2 fc bb c4 76 50 bc
       0.039902803 0.04598107 -0.0077155717 -0.012723628
000030 fb 68 50 3d 7c a7 a9 bc c4 8f 84 bc 79 bf f7 bc
       0.050881367 -0.020709746 -0.016181834 -0.030242668
000040 1b 1d 44 bd b2 9f f6 3c b4 b5 9c bc 16 1e d4 3c
       -0.04787932 0.030105446 -0.019129612 0.025893252
000050 43 14 46 3d 08 8f ac 3b 45 20 64 3d f0 34 fe bc
       0.048359167 0.005266074 0.055694837 -0.031031102
000060 2e 43 8f bc 82 77 9c 3c a8 ba 21 bd d8 d2 5e bd
       -0.017488088 0.019099955 -0.03948465 -0.054400295
000070 bc 16 39 bd a5 cc f9 bc 47 40 49 3d 10 af 02 bd
       -0.045187697 -0.03049309 0.049133565 -0.031905234
000080 64 ce 4b bd 3b 26 2c bd 40 26 6b bb c9 66 4c bd
       -0.049757376 -0.042028647 -0.0035880953 -0.04990271
000090 4b f6 4d 3d 7f 0b 22 3d 6d 34 37 3d f0 e8 38 3b
       0.05028371 0.039561745 0.04472773 0.0028215013
0000a0 a5 cd 48 3d 31 65 53 3d a4 ae b6 bc ac c2 f9 bc
       0.049024243 0.051610176 -0.022300072 -0.030488335
0000b0 de 17 64 bd 68 8a f1 3b 5a d9 b8 bc dc 52 48 3c
       -0.055686824 0.0073712356 -0.022564579 0.012226786
0000c0 a8 8c 02 bd b2 d1 66 bd 68 3f a0 bc c5 86 6b 3d
       -0.03187242 -0.056352325 -0.019561484 0.057501573
0000d0 0c a4 63 3c 54 11 68 bd 11 88 6e 3d c3 98 6c 3d
       0.013894092 -0.05665715 0.05823523 0.057762872
0000e0 be 30 cf 3c be ce 8b 3c 40 87 8c 3a ef 3f e6 bc
       0.025291797 0.017066356 0.001072146 -0.028106658
0000f0 59 c6 68 3d 81 2d 03 3d f0 32 b6 bb 0a 0b 9f 3c
       0.056829784 0.032025818 -0.0055602714 0.019414444
000100 c8 88 a3 bb ac 3d 4c 3c a8 27 4d bd 60 f9 f5 bc
       -0.004990671 0.012465876 -0.050086647 -0.030026138
000110 54 76 0b bd 7a f3 59 bd 95 5d 26 3d 78 96 71 bc
       -0.034048393 -0.053210713 0.04061659 -0.014745347
000120 ef 3b 66 3d e2 50 b8 3c 12 25 5b bd 41 69 f2 bc
       0.0562095 0.022499505 -0.05350215 -0.029591205
000130 e0 e9 a3 ba 08 9e 91 bb 52 a2 29 bd a8 ce b4 3b
       -0.0012505613 -0.0044438876 -0.041414566 0.0055177994
000140 38 6c 1c bc 12 b9 93 3c 94 66 fc bc 4c 13 0b 3c
       -0.009547286 0.018032584 -0.030810632 0.008488487
000150 86 05 5b bd 4c 0c 4a 3c 46 18 c1 3c a6 ac 8e 3c
       -0.053472064 0.012332033 0.023571145 0.01741631
000160 6e c0 97 3c a3 53 60 3d 95 f3 23 3d b0 1c b3 bb
       0.018524375 0.054767262 0.04002722 -0.0054660663
000170 b0 52 20 bc 42 dc a5 bc a7 6a 0f 3d ec 6a 3a bd
       -0.009785339 -0.020246629 0.03501382 -0.045512125
000180 d8 8a 4a bc f8 d2 bf bb ad 9b 29 3d 7a 45 45 bd
       -0.0123622045 -0.005854007 0.04140823 -0.04816196
000190 39 ca 0c 3d e4 d1 6a 3c 98 85 e2 bb 7c 49 59 bd
       0.034372542 0.014332268 -0.0069128983 -0.053048596
0001a0 0f ae 6c bd fe a0 46 bd c6 cf 44 bd 3f 1a 15 3d
       -0.057783183 -0.048493378 -0.04804971 0.036401983
0001b0 be 27 c3 3c 19 30 fa bc 6e 9c 26 bd 39 0f 17 3d
       0.023822661 -0.030540513 -0.040676527 0.03687975
0001c0 b8 2f eb bb ad c0 3a 3d cb 18 25 3d c6 7e c5 3c
       -0.0071773194 0.045593906 0.040306848 0.024108302
0001d0 c0 99 5a 3a 60 35 1b 3b 7d e7 09 3d 5b a3 69 3d
       0.00083389506 0.0023682937 0.03366803 0.057040554
0001e0 3e c2 9c bc 7c e7 b4 bc 12 01 14 bd 52 f0 e1 bc
       -0.01913559 -0.022083037 -0.036133833 -0.027580414
0001f0 b5 9e 41 3d 60 bd ad bb 1a 06 b0 3c c6 c9 9f 3c
       0.047270495 -0.0053021163 0.021487284 0.019505393
000200 f2 e5 05 bd 28 72 e6 bb 80 c8 8f ba e6 74 a4 bc
       -0.032689996 -0.0070326515 -0.0010969788 -0.020075273
000210 36 4e c8 3c be b3 bd bc ff 4b 56 bd 28 04 54 bd
       0.024451356 -0.023156997 -0.05231857 -0.051761776
000220 00 ef 83 ba 4e c0 b5 bc 60 3a f5 ba 18 c7 d1 bc
       -0.0010065734 -0.022186425 -0.0018709414 -0.02560763
000230 8b 4a 40 3d d5 da 67 bd cc 68 d0 bc 62 44 d1 bc
       0.04694609 -0.05660518 -0.025440596 -0.025545303
000240 30 32 1c bd d4 1e 2c bd 96 66 41 bd 95 a9 11 3d
       -0.0381338 -0.042021587 -0.047216974 0.035562117
000250 f1 a4 e9 bc 88 db 40 bd a3 a1 1e 3d b7 e7 49 3d
       -0.028521033 -0.04708436 0.038728368 0.049293246
000260 85 ed 6b 3d 04 31 41 bc f8 6b de 3b 8f e1 01 3d
       0.057599563 -0.011791471 0.006787773 0.03170925
000270 5c f2 6a bc 16 68 d5 bc 05 18 58 3d 30 d2 48 bb
       -0.01434001 -0.026050609 0.05275728 -0.003064286
000280 30 92 55 3b 4e 7b 1e bd d2 dc 5c bd 60 2b 87 bc
       0.0032588355 -0.03869181 -0.05392153 -0.016500175
000290 79 34 27 bd 59 3d 26 3d c8 21 81 bb 29 e2 6b 3d
       -0.040821526 0.04058585 -0.0039407946 0.05758873
0002a0 c4 79 7b 3c 68 ca b3 3b 2d 29 e7 bc 64 40 52 3c
       0.015348855 0.005486775 -0.028217876 0.012832735
0002b0 dc 6a 08 bc c8 79 26 bd eb 81 4a bd ed 2d 4d 3d
       -0.0083262585 -0.040643483 -0.049440306 0.050092626
0002c0 a6 cf 99 3c a6 02 6f bd 0f fd 15 3d 34 8c 4c 3c
       0.018775772 -0.058352135 0.03661829 0.012484599
0002d0 48 1e d4 bc 51 f6 57 3d 06 04 df 3c 6b ed 19 3d
       -0.025893345 0.05272514 0.027223598 0.037579935
0002e0 99 5a 1b 3d 82 e7 ed 3c 8d 0f 41 3d 7e 5a 81 bc
       0.037928198 0.029041056 0.04713397 -0.01579022
0002f0 28 e3 f5 3b fc 56 22 3c a3 fa 23 3d 6a 61 a0 3c
       0.007503886 0.009908434 0.040033948 0.0195777
000300 93 4d 0c 3d 04 b0 68 bd 9e a8 f5 3c 41 87 3f 3d
       0.034253668 -0.056808487 0.02998763 0.046759848
000310 6d 5f 4d 3d 2c 15 7d 3c 24 73 4a bd 24 14 03 bc
       0.050139833 0.015446942 -0.049426213 -0.008000407
000320 81 1f 1a 3d fb 53 46 3d 20 c7 bf 3a e8 ac ee 3b
       0.0376277 0.048419934 0.0014631487 0.0072837956
000330 c2 23 d2 3c 56 5c 15 bd 10 39 b9 bb eb 1f 0e 3d
       0.025651816 -0.03646501 -0.0056525543 0.034698408
000340 d4 8a 5a bd 5a 51 a5 3c 80 c4 bf ba 50 d7 6e bb
       -0.053355053 0.020180393 -0.0014630705 -0.0036444254
000350 32 d5 09 bd ff c5 49 3d 25 0f 29 3d 46 69 a7 3c
       -0.033650585 0.04926109 0.04127421 0.02043594
000360 ec 6f 1c 3c 5b e7 01 3d 00 b6 5e bb e7 e6 65 3d
       0.009548169 0.03171478 -0.0033982992 0.05612841
000370 22 6f c2 bc 00 08 b7 bc 7e a9 d6 bc 0c 3c 22 3c
       -0.023734633 -0.022342682 -0.026203867 0.009902012
000380 d4 f3 64 3c ec 70 9b bc 3e 04 fb bc 38 a6 e2 bc
       0.013974149 -0.018974744 -0.030641671 -0.02766715
000390 43 b8 54 bd b4 9b 1b 3c 94 a3 00 bc 38 06 13 bd
       -0.05193354 0.009497572 -0.0078515 -0.035894603
0003a0 1b 68 37 3d 99 1c 12 3d 7b 1b 14 3d 0e 16 36 bd
       0.044777017 0.035671804 0.03615902 -0.044454627
0003b0 79 ba 32 bd 85 cb 30 bd b2 59 bf bc 3f 85 0f 3d
       -0.043634865 -0.04316284 -0.0233582 0.035039183
0003c0 a8 50 80 bb e6 eb be bc 4b 3a 42 3d 36 5c e4 3c
       -0.003915865 -0.023305845 0.047418874 0.027876
0003d0 7c 13 5a 3c 95 89 35 3d 04 65 41 3c a0 3c 5e 3b
       0.0133103095 0.04432066 0.011803869 0.0033910647
0003e0 ba 3c ce 3c a1 92 36 3d cf fc 04 3d 2a 7e 8f 3c
       0.025175441 0.04457343 0.03246766 0.017516214
0003f0 71 52 5a 3d 2c 0b 38 bc 4a 5f 8c 3c 02 8b 22 bd
       0.05330128 -0.011233132 0.017135281 -0.03968335

weight f4 [64]
000000 00 00 80 3f 00 00 80 3f 00 00 80 3f 00 00 80 3f
       1.0 1.0 1.0 1.0
000010 00 00 80 3f 00 00 80 3f 00 00 80 3f 00 00 80 3f
       1.0 1.0 1.0 1.0
000020 00 00 80 3f 00 00 80 3f 00 00 80 3f 00 00 80 3f
       1.0 1.0 1.0 1.0
000030 00 00 80 3f 00 00 80 3f 00 00 80 3f 00 00 80 3f
       1.0 1.0 1.0 1.0
000040 00 00 80 3f 00 00 80 3f 00 00 80 3f 00 00 80 3f
       1.0 1.0 1.0 1.0
000050 00 00 80 3f 00 00 80 3f 00 00 80 3f 00 00 80 3f
       1.0 1.0 1.0 1.0
000060 00 00 80 3f 00 00 80 3f 00 00 80 3f 00 00 80 3f
       1.0 1.0 1.0 1.0
000070 00 00 80 3f 00 00 80 3f 00 00 80 3f 00 00 80 3f
       1.0 1.0 1.0 1.0
000080 00 00 80 3f 00 00 80 3f 00 00 80 3f 00 00 80 3f
       1.0 1.0 1.0 1.0
000090 00 00 80 3f 00 00 80 3f 00 00 80 3f 00 00 80 3f
       1.0 1.0 1.0 1.0
0000a0 00 00 80 3f 00 00 80 3f 00 00 80 3f 00 00 80 3f
       1.0 1.0 1.0 1.0
0000b0 00 00 80 3f 00 00 80 3f 00 00 80 3f 00 00 80 3f
       1.0 1.0 1.0 1.0
0000c0 00 00 80 3f 00 00 80 3f 00 00 80 3f 00 00 80 3f
       1.0 1.0 1.0 1.0
0000d0 00 00 80 3f 00 00 80 3f 00 00 80 3f 00 00 80 3f
       1.0 1.0 1.0 1.0
0000e0 00 00 80 3f 00 00 80 3f 00 00 80 3f 00 00 80 3f
       1.0 1.0 1.0 1.0
0000f0 00 00 80 3f 00 00 80 3f 00 00 80 3f 00 00 80 3f
       1.0 1.0 1.0 1.0

bias f4 [64]
000000 00 00 00 00 00 00 00 00 00 00 00 00 00 00 00 00
       0.0 0.0 0.0 0.0
000010 00 00 00 00 00 00 00 00 00 00 00 00 00 00 00 00
       0.0 0.0 0.0 0.0
000020 00 00 00 00 00 00 00 00 00 00 00 00 00 00 00 00
       0.0 0.0 0.0 0.0
000030 00 00 00 00 00 00 00 00 00 00 00 00 00 00 00 00
       0.0 0.0 0.0 0.0
000040 00 00 00 00 00 00 00 00 00 00 00 00 00 00 00 00
       0.0 0.0 0.0 0.0
000050 00 00 00 00 00 00 00 00 00 00 00 00 00 00 00 00
       0.0 0.0 0.0 0.0
000060 00 00 00 00 00 00 00 00 00 00 00 00 00 00 00 00
       0.0 0.0 0.0 0.0
000070 00 00 00 00 00 00 00 00 00 00 00 00 00 00 00 00
       0.0 0.0 0.0 0.0
000080 00 00 00 00 00 00 00 00 00 00 00 00 00 00 00 00
       0.0 0.0 0.0 0.0
000090 00 00 00 00 00 00 00 00 00 00 00 00 00 00 00 00
       0.0 0.0 0.0 0.0
0000a0 00 00 00 00 00 00 00 00 00 00 00 00 00 00 00 00
       0.0 0.0 0.0 0.0
0000b0 00 00 00 00 00 00 00 00 00 00 00 00 00 00 00 00
       0.0 0.0 0.0 0.0
0000c0 00 00 00 00 00 00 00 00 00 00 00 00 00 00 00 00
       0.0 0.0 0.0 0.0
0000d0 00 00 00 00 00 00 00 00 00 00 00 00 00 00 00 00
       0.0 0.0 0.0 0.0
0000e0 00 00 00 00 00 00 00 00 00 00 00 00 00 00 00 00
       0.0 0.0 0.0 0.0
0000f0 00 00 00 00 00 00 00 00 00 00 00 00 00 00 00 00
       0.0 0.0 0.0 0.0

running_mean f4 [64]
000000 00 00 00 00 00 00 00 00 00 00 00 00 00 00 00 00
       0.0 0.0 0.0 0.0
000010 00 00 00 00 00 00 00 00 00 00 00 00 00 00 00 00
       0.0 0.0 0.0 0.0
000020 00 00 00 00 00 00 00 00 00 00 00 00 00 00 00 00
       0.0 0.0 0.0 0.0
000030 00 00 00 00 00 00 00 00 00 00 00 00 00 00 00 00
       0.0 0.0 0.0 0.0
000040 00 00 00 00 00 00 00 00 00 00 00 00 00 00 00 00
       0.0 0.0 0.0 0.0
000050 00 00 00 00 00 00 00 00 00 00 00 00 00 00 00 00
       0.0 0.0 0.0 0.0
000060 00 00 00 00 00 00 00 00 00 00 00 00 00 00 00 00
       0.0 0.0 0.0 0.0
000070 00 00 00 00 00 00 00 00 00 00 00 00 00 00 00 00
       0.0 0.0 0.0 0.0
000080 00 00 00 00 00 00 00 00 00 00 00 00 00 00 00 00
       0.0 0.0 0.0 0.0
000090 00 00 00 00 00 00 00 00 00 00 00 00 00 00 00 00
       0.0 0.0 0.0 0.0
0000a0 00 00 00 00 00 00 00 00 00 00 00 00 00 00 00 00
       0.0 0.0 0.0 0.0
0000b0 00 00 00 00 00 00 00 00 00 00 00 00 00 00 00 00
       0.0 0.0 0.0 0.0
0000c0 00 00 00 00 00 00 00 00 00 00 00 00 00 00 00 00
       0.0 0.0 0.0 0.0
0000d0 00 00 00 00 00 00 00 00 00 00 00 00 00 00 00 00
       0.0 0.0 0.0 0.0
0000e0 00 00 00 00 00 00 00 00 00 00 00 00 00 00 00 00
       0.0 0.0 0.0 0.0
0000f0 00 00 00 00 00 00 00 00 00 00 00 00 00 00 00 00
       0.0 0.0 0.0 0.0

running_var f4 [64]
000000 00 00 80 3f 00 00 80 3f 00 00 80 3f 00 00 80 3f
       1.0 1.0 1.0 1.0
000010 00 00 80 3f 00 00 80 3f 00 00 80 3f 00 00 80 3f
       1.0 1.0 1.0 1.0
000020 00 00 80 3f 00 00 80 3f 00 00 80 3f 00 00 80 3f
       1.0 1.0 1.0 1.0
000030 00 00 80 3f 00 00 80 3f 00 00 80 3f 00 00 80 3f
       1.0 1.0 1.0 1.0
000040 00 00 80 3f 00 00 80 3f 00 00 80 3f 00 00 80 3f
       1.0 1.0 1.0 1.0
000050 00 00 80 3f 00 00 80 3f 00 00 80 3f 00 00 80 3f
       1.0 1.0 1.0 1.0
000060 00 00 80 3f 00 00 80 3f 00 00 80 3f 00 00 80 3f
       1.0 1.0 1.0 1.0
000070 00 00 80 3f 00 00 80 3f 00 00 80 3f 00 00 80 3f
       1.0 1.0 1.0 1.0
000080 00 00 80 3f 00 00 80 3f 00 00 80 3f 00 00 80 3f
       1.0 1.0 1.0 1.0
000090 00 00 80 3f 00 00 80 3f 00 00 80 3f 00 00 80 3f
       1.0 1.0 1.0 1.0
0000a0 00 00 80 3f 00 00 80 3f 00 00 80 3f 00 00 80 3f
       1.0 1.0 1.0 1.0
0000b0 00 00 80 3f 00 00 80 3f 00 00 80 3f 00 00 80 3f
       1.0 1.0 1.0 1.0
0000c0 00 00 80 3f 00 00 80 3f 00 00 80 3f 00 00 80 3f
       1.0 1.0 1.0 1.0
0000d0 00 00 80 3f 00 00 80 3f 00 00 80 3f 00 00 80 3f
       1.0 1.0 1.0 1.0
0000e0 00 00 80 3f 00 00 80 3f 00 00 80 3f 00 00 80 3f
       1.0 1.0 1.0 1.0
0000f0 00 00 80 3f 00 00 80 3f 00 00 80 3f 00 00 80 3f
       1.0 1.0 1.0 1.0

weight f4 [32, 64, 1, 1]
000000 24 d2 8e 3d 86 38 d2 bd 56 1c 99 3d e0 b9 c3 3b
       0.06973675 -0.10264687 0.07476108 0.0059730858
000010 28 76 07 3d 60 7d d9 bb 2e e5 ce 3d 98 eb ab bc
       0.033071667 -0.0066372603 0.10102306 -0.020986363
000020 ce fd 83 3d 5a c3 f2 bd b8 6f 60 3d 10 2a 09 bc
       0.06444894 -0.118536666 0.054794043 -0.008371845
000030 ec 4c 8f bd f4 99 8e bd 00 f5 df bb 84 8f 5f bd
       -0.069970936 -0.06962958 -0.006834626 -0.054580227
000040 d6 67 fa 3d 2c 61 6b 3d 74 f0 df bd 28 f7 f6 3c
       0.122268364 0.057465717 -0.10934535 0.03014715
000050 7c f9 dd 3d 90 be df bd 28 cd 8e 3c 48 d2 c6 bc
       0.10838601 -0.10925019 0.01743181 -0.024270192
000060 4a ad dd bd d0 bd 7f 3d 20 45 22 bc b0 0e 8b 3c
       -0.10824068 0.06243688 -0.009904176 0.016974777
000070 30 8c 92 3d 4c 99 9a bd 26 d6 cb bd e0 cc 38 bd
       0.07155645 -0.0754877 -0.09952955 -0.04511726
000080 ac 05 54 bd 46 66 cd bd 40 be ab 3d bc e1 1a bd
       -0.05176322 -0.10029273 0.08385897 -0.037812933
000090 40 e8 fd bd 60 b5 f9 3b b8 15 39 3d 48 99 b1 3d
       -0.12397814 0.0076204985 0.04518673 0.08671814
0000a0 1e 5a 8a bd c6 4f c8 3d 36 1e a4 bd c4 a2 47 3d
       -0.0675547 0.097808406 -0.08013575 0.04873921
0000b0 bc 88 d8 3d 50 6c 4a bd c2 c5 ba bd 60 ed 7a bc
       0.10572955 -0.0494197 -0.091197506 -0.015315384
0000c0 a2 72 cb 3d bc 04 4f 3d 68 bf fa bc 80 58 79 bd
       0.09933974 0.050541624 -0.030608848 -0.060875416
0000d0 74 0c 2b bd d8 0e 17 3d 30 9c f0 bc c0 59 bd 3d
       -0.041759923 0.03687939 -0.029371351 0.09245634
0000e0 84 ff 04 bd 42 c6 d3 3d c0 55 f4 3b 1e 5e b7 3d
       -0.03247024 0.10340549 0.0074565113 0.08953498
0000f0 80 4f 55 bc cc 35 07 3d 80 ab 98 bd 3a 55 ce bd
       -0.013019443 0.03301029 -0.07454586 -0.100748494
000100 d4 45 99 bd f0 e8 19 3c 60 fd bf bd ac 51 1a 3d
       -0.07484022 0.0093939155 -0.09374499 0.037675545
000110 30 01 7d 3c 2e a9 bf bd b0 a7 7a bd 6e a4 90 bd
       0.015442178 -0.0935844 -0.061195076 -0.070626125
000120 d2 53 b7 bd 54 39 f9 3d 94 63 f3 bd 38 f8 0c 3d
       -0.08951534 0.121691376 -0.118842274 0.034416407
000130 a0 ea 79 bd 40 f7 16 3d 98 25 64 bd 18 0c a6 3d
       -0.06101477 0.03685689 -0.055699915 0.081077754
000140 60 b8 9b 3b 04 8b 6e 3d 48 3f 02 bd 04 91 eb 3d
       0.004752204 0.058238044 -0.03179863 0.11502269
000150 78 65 c5 3d 24 c9 3e bd 28 59 9b 3c f2 4c af 3d
       0.09638494 -0.04657854 0.018963411 0.08559598
000160 32 18 99 3d 30 04 ba 3c 0e 92 bf bd b0 70 11 3c
       0.07475318 0.022707075 -0.093540296 0.008876964
000170 a0 72 b2 bd 78 d2 51 3d 0c d6 31 bd f0 21 43 bc
       -0.08713269 0.05122611 -0.04341702 -0.011909947
000180 30 9d a7 3d 90 d4 ed 3c e0 4f dd bc 50 69 ac bc
       0.08184278 0.029032022 -0.027015626 -0.02104631
000190 88 56 64 3d 72 7b 92 bd d8 6d 8a 3d da f5 ce 3d
       0.055746585 -0.071524516 0.06759232 0.10105486
0001a0 3a e4 a9 bd d6 16 ae bd da 78 d4 3d 24 36 9c bd
       -0.08295484 -0.08500449 0.10374613 -0.07627514
0001b0 04 50 07 bd d0 1b 19 3c 30 be 1f bc e6 dc ac 3d
       -0.033035293 0.00934501 -0.009749934 0.084405705
0001c0 c0 15 0c bc 22 b1 8a bd aa 11 d8 3d 2c 83 db 3d
       -0.0085501075 -0.06772067 0.10550244 0.107183784
0001d0 e8 ca dc bd 88 0d 7f 3d b0 4f c8 bd 08 12 b2 3d
       -0.10780889 0.062268764 -0.09780824 0.086948454
0001e0 40 fe dc 3c e0 7e f4 bc 8e ed ce bd f0 23 94 3c
       0.026976705 -0.029845655 -0.10103904 0.018083543
0001f0 88 1b 94 bc 00 6e e0 bc c2 2c e1 bd cc 05 74 3d
       -0.018079534 -0.027396202 -0.10994865 0.05957584
000200 f6 53 b3 bd bc c7 a1 3d d0 73 4d bc e0 ee 01 3c
       -0.08756249 0.078994244 -0.012539819 0.007930487
000210 70 23 98 3d d8 0c 6a bd c4 39 59 3d f8 4c fe 3d
       0.07428634 -0.057141155 0.053033605 0.124170244
000220 cc 47 b3 bd c0 55 67 bb e4 4f 57 3d 0e 1d 98 bd
       -0.087539285 -0.0035298914 0.052566424 -0.07427417
000230 fa f5 87 bd 78 88 9a 3d da 5a f7 bd e0 4a cc 3b
       -0.06638713 0.075455606 -0.120778754 0.0062345117
000240 96 9d f7 3d b0 1a 26 bc 80 e5 da bc 5c 2b 82 3d
       0.12090604 -0.010138199 -0.026720762 0.063559264
000250 88 7f b4 3c 9c 5f 1d bd d2 1d fe bd 90 37 ac bc
       0.022033468 -0.03842126 -0.124080315 -0.021022588
000260 cc 5c c4 bd ba ba ff 3d ca c6 d5 bd 2c ed bc 3d
       -0.09588012 0.12486787 -0.10438307 0.092249244
000270 b0 f3 c1 3d 3e 5f 97 3d 80 a8 c0 3d 20 dc 03 bc
       0.09470308 0.07391213 0.09407139 -0.008048087
000280 00 c8 70 39 5a f1 d9 3d 30 92 79 3c c0 a0 24 3b
       0.0002296269 0.10641737 0.015232608 0.0025120229
000290 e2 f5 e7 3d 8c 6a 86 3d 0e 25 eb bd 6c 4b 2d bd
       0.11326195 0.06563291 -0.11481677 -0.042308256
0002a0 d8 aa d0 3c 50 bf e7 bc fc eb 70 3d 4e 32 8f 3d
       0.02547209 -0.028289467 0.058818802 0.06992017
0002b0 14 9d 54 3d 80 34 23 bd 4a 8e f8 3d e8 8d ae 3d
       0.051907614 -0.03984499 0.121365145 0.0852316
0002c0 78 e7 c5 3d 86 0d 9c 3d 0c 71 5e bd 94 18 11 bd
       0.0966329 0.07619767 -0.05430703 -0.03542383
0002d0 40 ca f1 3d 58 de 6e bd e0 6a 9e bd 0a 91 cb 3d
       0.11806154 -0.058317512 -0.077352285 0.099397734
0002e0 e8 c9 e7 bc d4 7e e2 bd 00 20 11 ba ec 25 4f bd
       -0.028294519 -0.11059347 -0.00055360794 -0.050573274
0002f0 08 9b d2 3c d8 6d 96 bc b2 80 d2 3d 00 ce a5 bb
       0.02570869 -0.018362924 0.10278453 -0.0050599575
000300 20 da fa 3c 1c f4 cd 3d c0 50 52 3d 02 5e 83 bd
       0.030621588 0.10056326 0.05134654 -0.06414415
000310 70 95 57 3d ee 58 f6 3d 54 22 99 bd e0 f6 48 bd
       0.05263275 0.12028681 -0.07477251 -0.049063563
000320 80 d5 e4 bd 64 fc 5b bd ba d1 98 3d 40 de 3a 3d
       -0.111735344 -0.053707495 0.07461877 0.04562211
000330 50 34 ff bc 00 ed b9 3d d0 7a e4 3d aa 66 da bd
       -0.031152874 0.09078407 0.11156237 -0.10664113
000340 70 b0 69 bc a0 16 d5 3c 04 23 e3 bd 90 03 a2 bc
       -0.014263257 0.026011765 -0.11090663 -0.01977709
000350 d0 16 45 bd 88 80 9f 3d 76 28 93 3d 3c e3 c8 3d
       -0.04811746 0.07788187 0.07185452 0.098089665
000360 30 e5 1e 3c 88 95 a7 bc 90 02 72 bc 48 1c ea 3d
       0.009698197 -0.020457044 -0.014771119 0.114311755
000370 14 b5 c8 3d 44 de a3 bd 80 53 f2 3d 00 f8 87 3c
       0.09800163 -0.08001378 0.118323326 0.016597748
000380 70 2a 8a bc 32 b8 d2 bd 14 d5 85 3d be d8 a6 bd
       -0.016865939 -0.10289039 0.06534782 -0.08146809
000390 fc 22 4c 3d 24 6c 1d 3d 00 a8 ad 3a 28 e0 f4 3d
       0.04983805 0.03843321 0.001324892 0.11956817
0003a0 00 b3 71 3c b8 91 b3 bc d0 c9 1b bc f2 ef 9c 3d
       0.01475215 -0.02192007 -0.009508565 0.076629534
0003b0 c0 33 99 3b 80 fd 46 3c e8 2c 93 bc 04 22 26 3d
       0.0046753585 0.0121454 -0.017965749 0.040559784
0003c0 d0 41 ab bd 18 98 ea 3c f4 ac 51 bd 44 24 4f bd
       -0.08362162 0.028636977 -0.05119033 -0.050571695
0003d0 fa 65 b5 3d 60 15 a5 3c d4 65 46 bd fc 4a 95 bd
       0.08857341 0.020151794 -0.048436955 -0.07289693
0003e0 d0 e7 5f bc 2c 61 91 3d 4e c3 c6 bd 10 d5 2a 3d
       -0.013666108 0.07098612 -0.0970522 0.0417071
0003f0 f8 ea 57 bd 00 7a ad 3d 3c 18 0b bd 4c bc 55 bd
       -0.052714318 0.08470535 -0.03395866 -0.052181527

weight f4 [32]
000000 00 00 80 3f 00 00 80 3f 00 00 80 3f 00 00 80 3f
       1.0 1.0 1.0 1.0
000010 00 00 80 3f 00 00 80 3f 00 00 80 3f 00 00 80 3f
       1.0 1.0 1.0 1.0
000020 00 00 80 3f 00 00 80 3f 00 00 80 3f 00 00 80 3f
       1.0 1.0 1.0 1.0
000030 00 00 80 3f 00 00 80 3f 00 00 80 3f 00 00 80 3f
       1.0 1.0 1.0 1.0
000040 00 00 80 3f 00 00 80 3f 00 00 80 3f 00 00 80 3f
       1.0 1.0 1.0 1.0
000050 00 00 80 3f 00 00 80 3f 00 00 80 3f 00 00 80 3f
       1.0 1.0 1.0 1.0
000060 00 00 80 3f 00 00 80 3f 00 00 80 3f 00 00 80 3f
       1.0 1.0 1.0 1.0
000070 00 00 80 3f 00 00 80 3f 00 00 80 3f 00 00 80 3f
       1.0 1.0 1.0 1.0

bias f4 [32]
000000 00 00 00 00 00 00 00 00 00 00 00 00 00 00 00 00
       0.0 0.0 0.0 0.0
000010 00 00 00 00 00 00 00 00 00 00 00 00 00 00 00 00
       0.0 0.0 0.0 0.0
000020 00 00 00 00 00 00 00 00 00 00 00 00 00 00 00 00
       0.0 0.0 0.0 0.0
000030 00 00 00 00 00 00 00 00 00 00 00 00 00 00 00 00
       0.0 0.0 0.0 0.0
000040 00 00 00 00 00 00 00 00 00 00 00 00 00 00 00 00
       0.0 0.0 0.0 0.0
000050 00 00 00 00 00 00 00 00 00 00 00 00 00 00 00 00
       0.0 0.0 0.0 0.0
000060 00 00 00 00 00 00 00 00 00 00 00 00 00 00 00 00
       0.0 0.0 0.0 0.0
000070 00 00 00 00 00 00 00 00 00 00 00 00 00 00 00 00
       0.0 0.0 0.0 0.0

running_mean f4 [32]
000000 00 00 00 00 00 00 00 00 00 00 00 00 00 00 00 00
       0.0 0.0 0.0 0.0
000010 00 00 00 00 00 00 00 00 00 00 00 00 00 00 00 00
       0.0 0.0 0.0 0.0
000020 00 00 00 00 00 00 00 00 00 00 00 00 00 00 00 00
       0.0 0.0 0.0 0.0
000030 00 00 00 00 00 00 00 00 00 00 00 00 00 00 00 00
       0.0 0.0 0.0 0.0
000040 00 00 00 00 00 00 00 00 00 00 00 00 00 00 00 00
       0.0 0.0 0.0 0.0
000050 00 00 00 00 00 00 00 00 00 00 00 00 00 00 00 00
       0.0 0.0 0.0 0.0
000060 00 00 00 00 00 00 00 00 00 00 00 00 00 00 00 00
       0.0 0.0 0.0 0.0
000070 00 00 00 00 00 00 00 00 00 00 00 00 00 00 00 00
       0.0 0.0 0.0 0.0

running_var f4 [32]
000000 00 00 80 3f 00 00 80 3f 00 00 80 3f 00 00 80 3f
       1.0 1.0 1.0 1.0
000010 00 00 80 3f 00 00 80 3f 00 00 80 3f 00 00 80 3f
       1.0 1.0 1.0 1.0
000020 00 00 80 3f 00 00 80 3f 00 00 80 3f 00 00 80 3f
       1.0 1.0 1.0 1.0
000030 00 00 80 3f 00 00 80 3f 00 00 80 3f 00 00 80 3f
       1.0 1.0 1.0 1.0
000040 00 00 80 3f 00 00 80 3f 00 00 80 3f 00 00 80 3f
       1.0 1.0 1.0 1.0
000050 00 00 80 3f 00 00 80 3f 00 00 80 3f 00 00 80 3f
       1.0 1.0 1.0 1.0
000060 00 00 80 3f 00 00 80 3f 00 00 80 3f 00 00 80 3f
       1.0 1.0 1.0 1.0
000070 00 00 80 3f 00 00 80 3f 00 00 80 3f 00 00 80 3f
       1.0 1.0 1.0 1.0

weight f4 [64, 32, 3, 3]
000000 9b c0 62 3d a8 ac af bc ad 93 23 3d 3c 99 4a bd
       0.055359464 -0.021444634 0.039935756 -0.049462542
000010 a4 76 1a bd 7e 21 b8 bc 24 ee 7a 3c 62 d8 10 bd
       -0.0377108 -0.022476908 0.015315566 -0.03536261
000020 d2 45 f0 bc d4 ed fc bc cc ea 5c 3c 30 96 11 3b
       -0.029330168 -0.030875124 0.013483714 0.0022214763
000030 6e 0f 18 bd d7 38 55 3d e2 09 d2 3c 5d 7c 5a 3d
       -0.03712409 0.05205616 0.025639478 0.05334126
000040 07 75 5d 3d 2f 63 1c 3d 9b d0 3f 3d 8a 85 97 3c
       0.054066684 0.038180526 0.0468298 0.018496294
000050 eb 86 0d 3d a4 6d 19 bd 08 21 93 bb c8 58 d5 3b
       0.034552496 -0.037458077 -0.0044900216 0.0065108277
000060 5e 0c aa bc e7 55 33 3d de 3d 9c bc a9 db 10 3d
       -0.02075785 0.043783095 -0.01907247 0.035365734
000070 96 82 e6 3c 0b c0 3e bd cc 10 51 bc 8f d6 52 bd
       0.02813844 -0.046569865 -0.012760352 -0.05147415
000080 88 46 ec 3b 41 d9 67 bd 0b 6e 4e 3d c4 b0 2a 3c
       0.0072105564 -0.056603674 0.050397914 0.010418121
000090 02 f9 eb 3c 64 67 e9 bc 8e fb f7 3c e2 b5 9c bc
       0.02880526 -0.028491683 0.030271318 -0.019129697
0000a0 75 66 43 3d a2 ac 8f bc 79 a0 54 3d 00 ca 10 bc
       0.047705133 -0.017538372 0.05191085 -0.008837223
0000b0 07 48 58 3d b6 8d 80 bc 57 a0 53 3d fc f8 7f 3c
       0.052803066 -0.015692573 0.051666584 0.015623327
0000c0 ac 47 59 3c fc 85 53 3c bc ba c1 bc 89 6e 3c 3d
       0.013261717 0.012910362 -0.023648612 0.046003852
0000d0 15 95 6f 3d 8c a9 86 bc cc 5c 43 3c cb ee 43 3d
       0.058491785 -0.016438268 0.01192398 0.047835153
0000e0 44 7b 5b bc 35 32 13 bd 8a e1 b8 3c 80 d8 98 39
       -0.013396088 -0.035936553 0.022568483 0.00029153004
0000f0 c9 a2 6a 3d 19 e5 50 3d 06 3c 9b 3c 8a 25 87 bc
       0.05728415 0.050999735 0.01894952 -0.016497392
000100 35 e5 54 3d 24 87 40 bd ec 41 9a bc 30 e2 51 bb
       0.0519764 -0.04700388 -0.018830262 -0.0032025687
000110 a8 82 3d bd 9a 2f 31 bd e4 b7 46 bd 84 f6 a6 bc
       -0.04626718 -0.043258287 -0.048515216 -0.02038122
000120 e8 21 e3 bb b6 71 ce 3c 36 90 ee 3c c3 61 51 3d
       -0.006931532 0.025200706 0.0291215 0.051118623
000130 25 1a 5f 3d b3 36 4f 3d 8e 7c ae bc c8 1b 6b bd
       0.054468293 0.050589275 -0.021299627 -0.05739954
000140 4d 0f 41 3d 52 d5 b3 bc d4 e9 1a 3c 0d f1 42 3d
       0.047133733 -0.021952305 0.009455163 0.047593165
000150 65 23 3e 3d a4 fc 77 bc 40 8f 85 bb 9f bc 23 3d
       0.046420474 -0.015135918 -0.0040759146 0.039974805
000160 0a 9c c9 3c c0 27 9a bc 6e a6 9f bc 80 40 15 3b
       0.024610538 -0.018817782 -0.01948854 0.002277404
000170 d0 c6 4b bb 1d 6f 6a 3d d2 a9 05 bd 4b 4c 44 3d
       -0.0031093843 0.057234872 -0.032632656 0.04792432
000180 b4 5a 61 3c 8e cf 81 3c 21 49 58 bd ed d7 24 3d
       0.0137545355 0.01584604 -0.052804116 0.040244985
000190 24 78 6c bd 05 da 3b 3d 16 a0 d8 bc 64 a8 4b bd
       -0.057731763 0.045862217 -0.026443522 -0.049721137
0001a0 c2 97 da 3c 71 f9 3d bd 75 26 40 bd 22 74 56 bd
       0.026683692 -0.046380464 -0.046911675 -0.052356847
0001b0 6e 9f e1 bc 98 c0 5c bc 90 71 1f bd ac 72 0c 3c
       -0.027541842 -0.013473652 -0.03892666 0.008572262
0001c0 38 b7 64 bc 40 3f 2d 3a 62 e7 9a 3c a6 d7 e2 3c
       -0.013959698 0.0006608851 0.01890916 0.02769072
0001d0 2b a7 0d 3d 22 2b 65 bd c7 ae 1f 3d 67 c1 06 3d
       0.034583252 -0.055949338 0.03898504 0.032899287
0001e0 9e 35 97 3c 35 0e 70 bd dc 42 6f bc 5f dc 5a 3d
       0.018458184 -0.0586073 -0.014603343 0.05343282
0001f0 58 35 c3 3b 8d e1 67 3d 50 ea 17 bb b2 f5 cd bc
       0.005957287 0.056611586 -0.0023180433 -0.02514157
000200 9b d4 01 3d f3 7c 12 3d 66 1b bf 3c fb 06 5c 3d
       0.031696897 0.035763692 0.023328494 0.053717595
000210 78 ef d2 3b 94 6c 2a bc d7 35 65 3d 06 44 8a 3c
       0.0064372383 -0.010401864 0.05595955 0.01687814
000220 a6 06 31 bd ca 51 86 bc a1 26 20 3d 27 d0 3b 3d
       -0.04321923 -0.016396422 0.03909934 0.045852806
000230 16 65 e4 3c b0 40 b8 bb de c2 c2 3c 66 6f b9 3c
       0.027880233 -0.0056229457 0.02377456 0.022636127
000240 ec 9d 04 bd 0c 30 20 3c c1 0b 64 bd 70 44 d4 bc
       -0.03237717 0.00977708 -0.055675272 -0.02591154
000250 c6 41 5a bd d0 00 05 3b 8e 63 35 bd 79 2b 5c 3d
       -0.053285383 0.0020294674 -0.044284396 0.053752396
000260 31 4c 5e 3d 35 a1 56 3d d2 c4 86 3c 68 59 c0 3b
       0.05427188 0.052399833 0.016451273 0.005870033
000270 1e 5e d1 bc 92 13 b8 3c d8 9f 51 bd b3 d0 e6 bc
       -0.025557574 0.02247027 -0.05117783 -0.028175687
000280 b0 bf 6e bb 4c 62 1c bc e4 8a 60 bc 37 4a 17 3d
       -0.0036430173 -0.00954492 -0.013704989 0.03693601
000290 58 e0 9d 3b 75 d7 4e 3d 9c dc 6c 3c 77 c9 1a 3d
       0.0048180036 0.050498445 0.014456894 0.037789788
0002a0 2e 9b 90 bc 00 d0 c4 b8 31 6b 26 bd 1d 33 63 3d
       -0.01765212 -9.384751e-05 -0.04062957 0.055468667
0002b0 94 8f 07 3c a8 5d 30 bc cc be c7 bc 97 07 21 bd
       0.008273978 -0.010764517 -0.024382971 -0.03931388
0002c0 11 24 39 3d dd 41 2a 3d 30 83 b7 bc ce 62 a4 3c
       0.04520041 0.04156672 -0.022401422 0.020066645
0002d0 26 af ed 3c d9 67 2b 3d 1d fc 26 3d fd b3 2c 3d
       0.029014181 0.041847084 0.040767778 0.042163838
0002e0 f9 6c 03 bd 40 3f e8 bb 6d 18 16 bd bc fa 52 bc
       -0.032086346 -0.007087618 -0.036644388 -0.012877163
0002f0 10 51 02 bb fa e2 9c bc 43 2c 5c bd 4a 8c 8b 3c
       -0.0019884743 -0.0191512 -0.05375315 0.017034668
000300 c0 d1 0e 3a f1 b6 5b 3d 00 b5 91 bc 24 69 3a bd
       0.00054481253 0.053641263 -0.017786503 -0.045510426
000310 40 39 7f bb d0 04 77 3b 51 1f 64 3d 42 9d e6 3c
       -0.0038944036 0.0037692077 0.05569393 0.028151158
000320 4e 04 a8 bc 6c 1b 58 bc a4 a4 36 bc 9c 27 1d bc
       -0.020509865 -0.013190132 -0.011147652 -0.009591963
000330 25 50 45 3d 20 94 01 bd 8c 6a 58 bd 6d 75 00 3d
       0.048172135 -0.031635404 -0.052835986 0.031361986
000340 1a 20 1b bd 1d b6 69 3d 90 a5 4b bd d5 23 30 bd
       -0.03787241 0.057058442 -0.04971844 -0.043002922
000350 86 11 09 bd f2 e4 1f bd 74 d4 17 bd d0 94 c2 bc
       -0.033463977 -0.0390367 -0.037067845 -0.0237526
000360 e8 33 24 bd 58 f0 28 bd 19 d6 6d 3d fd d0 68 3d
       -0.040088564 -0.041244835 0.058065508 0.05683993
000370 38 16 89 3b 6a 59 44 bd b0 89 01 bc 92 f4 2d bd
       0.004183557 -0.047936834 -0.007906362 -0.04246957
000380 30 ed 48 bc 91 14 1d bd fa 68 ee 3c 91 bd 13 bd
       -0.012263581 -0.03834969 0.029102791 -0.036069456
000390 40 8a 79 bb 9a 30 43 bd 5c 91 34 3c c7 2c 03 3d
       -0.0038076788 -0.047653772 0.0110209845 0.032025125
0003a0 1a 43 e4 3c 40 d4 18 ba d4 9d ff bc 34 67 45 3c
       0.027864028 -0.00058299676 -0.031203188 0.012048531
0003b0 86 b3 bf 3c 32 43 26 bd b0 e9 5a bc 74 03 6e 3c
       0.023401033 -0.040591426 -0.0133613795 0.0145271905
0003c0 76 bc cc bc 80 12 92 39 9a 25 65 bd 00 43 ae bc
       -0.024992209 0.00027861074 -0.055944063 -0.021272182
0003d0 3c c8 ee bc 64 2f 3b bd 79 c8 19 bd fa 5c e1 bc
       -0.029148214 -0.045699492 -0.0375447 -0.027510155
0003e0 d4 42 37 bc f3 95 18 3d fd dd 5f bd 59 78 6e 3d
       -0.011185367 0.037252378 -0.054655064 0.05822024
0003f0 bb 33 15 3d 58 08 bf bb ac 18 18 3c 63 0e 31 3d
       0.036426287 -0.005829852 0.009283226 0.04322661

weight f4 [64]
000000 00 00 80 3f 00 00 80 3f 00 00 80 3f 00 00 80 3f
       1.0 1.0 1.0 1.0
000010 00 00 80 3f 00 00 80 3f 00 00 80 3f 00 00 80 3f
       1.0 1.0 1.0 1.0
000020 00 00 80 3f 00 00 80 3f 00 00 80 3f 00 00 80 3f
       1.0 1.0 1.0 1.0
000030 00 00 80 3f 00 00 80 3f 00 00 80 3f 00 00 80 3f
       1.0 1.0 1.0 1.0
000040 00 00 80 3f 00 00 80 3f 00 00 80 3f 00 00 80 3f
       1.0 1.0 1.0 1.0
000050 00 00 80 3f 00 00 80 3f 00 00 80 3f 00 00 80 3f
       1.0 1.0 1.0 1.0
000060 00 00 80 3f 00 00 80 3f 00 00 80 3f 00 00 80 3f
       1.0 1.0 1.0 1.0
000070 00 00 80 3f 00 00 80 3f 00 00 80 3f 00 00 80 3f
       1.0 1.0 1.0 1.0
000080 00 00 80 3f 00 00 80 3f 00 00 80 3f 00 00 80 3f
       1.0 1.0 1.0 1.0
000090 00 00 80 3f 00 00 80 3f 00 00 80 3f 00 00 80 3f
       1.0 1.0 1.0 1.0
0000a0 00 00 80 3f 00 00 80 3f 00 00 80 3f 00 00 80 3f
       1.0 1.0 1.0 1.0
0000b0 00 00 80 3f 00 00 80 3f 00 00 80 3f 00 00 80 3f
       1.0 1.0 1.0 1.0
0000c0 00 00 80 3f 00 00 80 3f 00 00 80 3f 00 00 80 3f
       1.0 1.0 1.0 1.0
0000d0 00 00 80 3f 00 00 80 3f 00 00 80 3f 00 00 80 3f
       1.0 1.0 1.0 1.0
0000e0 00 00 80 3f 00 00 80 3f 00 00 80 3f 00 00 80 3f
       1.0 1.0 1.0 1.0
0000f0 00 00 80 3f 00 00 80 3f 00 00 80 3f 00 00 80 3f
       1.0 1.0 1.0 1.0

bias f4 [64]
000000 00 00 00 00 00 00 00 00 00 00 00 00 00 00 00 00
       0.0 0.0 0.0 0.0
000010 00 00 00 00 00 00 00 00 00 00 00 00 00 00 00 00
       0.0 0.0 0.0 0.0
000020 00 00 00 00 00 00 00 00 00 00 00 00 00 00 00 00
       0.0 0.0 0.0 0.0
000030 00 00 00 00 00 00 00 00 00 00 00 00 00 00 00 00
       0.0 0.0 0.0 0.0
000040 00 00 00 00 00 00 00 00 00 00 00 00 00 00 00 00
       0.0 0.0 0.0 0.0
000050 00 00 00 00 00 00 00 00 00 00 00 00 00 00 00 00
       0.0 0.0 0.0 0.0
000060 00 00 00 00 00 00 00 00 00 00 00 00 00 00 00 00
       0.0 0.0 0.0 0.0
000070 00 00 00 00 00 00 00 00 00 00 00 00 00 00 00 00
       0.0 0.0 0.0 0.0
000080 00 00 00 00 00 00 00 00 00 00 00 00 00 00 00 00
       0.0 0.0 0.0 0.0
000090 00 00 00 00 00 00 00 00 00 00 00 00 00 00 00 00
       0.0 0.0 0.0 0.0
0000a0 00 00 00 00 00 00 00 00 00 00 00 00 00 00 00 00
       0.0 0.0 0.0 0.0
0000b0 00 00 00 00 00 00 00 00 00 00 00 00 00 00 00 00
       0.0 0.0 0.0 0.0
0000c0 00 00 00 00 00 00 00 00 00 00 00 00 00 00 00 00
       0.0 0.0 0.0 0.0
0000d0 00 00 00 00 00 00 00 00 00 00 00 00 00 00 00 00
       0.0 0.0 0.0 0.0
0000e0 00 00 00 00 00 00 00 00 00 00 00 00 00 00 00 00
       0.0 0.0 0.0 0.0
0000f0 00 00 00 00 00 00 00 00 00 00 00 00 00 00 00 00
       0.0 0.0 0.0 0.0

running_mean f4 [64]
000000 00 00 00 00 00 00 00 00 00 00 00 00 00 00 00 00
       0.0 0.0 0.0 0.0
000010 00 00 00 00 00 00 00 00 00 00 00 00 00 00 00 00
       0.0 0.0 0.0 0.0
000020 00 00 00 00 00 00 00 00 00 00 00 00 00 00 00 00
       0.0 0.0 0.0 0.0
000030 00 00 00 00 00 00 00 00 00 00 00 00 00 00 00 00
       0.0 0.0 0.0 0.0
000040 00 00 00 00 00 00 00 00 00 00 00 00 00 00 00 00
       0.0 0.0 0.0 0.0
000050 00 00 00 00 00 00 00 00 00 00 00 00 00 00 00 00
       0.0 0.0 0.0 0.0
000060 00 00 00 00 00 00 00 00 00 00 00 00 00 00 00 00
       0.0 0.0 0.0 0.0
000070 00 00 00 00 00 00 00 00 00 00 00 00 00 00 00 00
       0.0 0.0 0.0 0.0
000080 00 00 00 00 00 00 00 00 00 00 00 00 00 00 00 00
       0.0 0.0 0.0 0.0
000090 00 00 00 00 00 00 00 00 00 00 00 00 00 00 00 00
       0.0 0.0 0.0 0.0
0000a0 00 00 00 00 00 00 00 00 00 00 00 00 00 00 00 00
       0.0 0.0 0.0 0.0
0000b0 00 00 00 00 00 00 00 00 00 00 00 00 00 00 00 00
       0.0 0.0 0.0 0.0
0000c0 00 00 00 00 00 00 00 00 00 00 00 00 00 00 00 00
       0.0 0.0 0.0 0.0
0000d0 00 00 00 00 00 00 00 00 00 00 00 00 00 00 00 00
       0.0 0.0 0.0 0.0
0000e0 00 00 00 00 00 00 00 00 00 00 00 00 00 00 00 00
       0.0 0.0 0.0 0.0
0000f0 00 00 00 00 00 00 00 00 00 00 00 00 00 00 00 00
       0.0 0.0 0.0 0.0

running_var f4 [64]
000000 00 00 80 3f 00 00 80 3f 00 00 80 3f 00 00 80 3f
       1.0 1.0 1.0 1.0
000010 00 00 80 3f 00 00 80 3f 00 00 80 3f 00 00 80 3f
       1.0 1.0 1.0 1.0
000020 00 00 80 3f 00 00 80 3f 00 00 80 3f 00 00 80 3f
       1.0 1.0 1.0 1.0
000030 00 00 80 3f 00 00 80 3f 00 00 80 3f 00 00 80 3f
       1.0 1.0 1.0 1.0
000040 00 00 80 3f 00 00 80 3f 00 00 80 3f 00 00 80 3f
       1.0 1.0 1.0 1.0
000050 00 00 80 3f 00 00 80 3f 00 00 80 3f 00 00 80 3f
       1.0 1.0 1.0 1.0
000060 00 00 80 3f 00 00 80 3f 00 00 80 3f 00 00 80 3f
       1.0 1.0 1.0 1.0
000070 00 00 80 3f 00 00 80 3f 00 00 80 3f 00 00 80 3f
       1.0 1.0 1.0 1.0
000080 00 00 80 3f 00 00 80 3f 00 00 80 3f 00 00 80 3f
       1.0 1.0 1.0 1.0
000090 00 00 80 3f 00 00 80 3f 00 00 80 3f 00 00 80 3f
       1.0 1.0 1.0 1.0
0000a0 00 00 80 3f 00 00 80 3f 00 00 80 3f 00 00 80 3f
       1.0 1.0 1.0 1.0
0000b0 00 00 80 3f 00 00 80 3f 00 00 80 3f 00 00 80 3f
       1.0 1.0 1.0 1.0
0000c0 00 00 80 3f 00 00 80 3f 00 00 80 3f 00 00 80 3f
       1.0 1.0 1.0 1.0
0000d0 00 00 80 3f 00 00 80 3f 00 00 80 3f 00 00 80 3f
       1.0 1.0 1.0 1.0
0000e0 00 00 80 3f 00 00 80 3f 00 00 80 3f 00 00 80 3f
       1.0 1.0 1.0 1.0
0000f0 00 00 80 3f 00 00 80 3f 00 00 80 3f 00 00 80 3f
       1.0 1.0 1.0 1.0
